tinystoriespuregru.pt (torch, 850401 bytes, 13 tensors)

token_emb.weight f4 [98, 124]
00000000: 7320 cdbe 1856 0ebf 0c4b 80bf f1b9 3e40
00000010: da67 943e 0649 1640 9306 39c0 67c5 f43f
00000020: 62de c0bf 0047 cdbf 618a 4740 18f2 f63f
00000030: 6e10 433f b957 263f 8bbe b9bf af91 15bf
00000040: 3c14 1c40 b9a4 f3bf eeb3 a4be f53b 30c0
00000050: a5a5 04c0 cf34 2140 0e31 68bf 5ca0 c9bf
00000060: e2ab 3f40 3b33 503f 1ae1 e53f e991 6fbf
00000070: 6ea6 69be 095d ee3f b8aa 943f 6f3c 5640
00000080: 1717 0040 7aea 1140 a028 2340 28c5 ac3f
00000090: fb60 373f 9782 c63e 47d9 bfbd 0c1b 76bf
000000a0: 47cf 6940 1f22 e83c eed1 b5bf 0153 573f
000000b0: 1d76 8b3f 2978 42c0 146c c43e 3ccb 663f
000000c0: 6d1f d6be a272 1040 4227 84bf b3d8 1740
000000d0: f614 28c0 f367 debe 0f48 c63f 697b 01c0
000000e0: c4f3 aabf d985 973f 76f0 9b3f 1b9f 15bd
000000f0: 8123 16bf fb83 3440 701a a6bf 4612 4a40
00000100: 02e1 2d3f 295b 3f3f 48a2 5a3f 8ab0 fcbe
00000110: 4b06 46be 7aaa 693f 79f2 2d40 91e8 19c0
00000120: 5354 8fc0 7ee5 aa3f c7aa 2640 c1ff eebe
00000130: 5109 413d 35ad 523f 31c1 babf a277 0140
00000140: 2965 0840 9172 06c0 e06d 283f 3132 d5bf
00000150: 1472 1bc0 8867 9e3f d6da 2440 c75c 0e40
00000160: 257e c6bf c800 cfbe 63d4 2ac0 6e7a bf3e
00000170: 4209 fb3f e294 2dc0 59cf d23f 5595 0b40
00000180: 4990 5240 071c bd3f b5ba 0a40 6b60 193d
00000190: fb01 eeba 68b0 33c0 faad dbbf c5f8 7ec0
000001a0: 4cf4 c93f 19d3 3b3f 2fc5 33bf c625 14bd
000001b0: 3e8c 4e3d 88b0 d53e ec12 61c0 02c4 b43f
000001c0: 29b7 afbf 1f50 76c0 9f4d 72be 8bfa 4f3f
000001d0: 4a27 7140 d256 133f 0c17 4f3f 9781 2f3f
000001e0: 21ee 82bf f315 e43e 3691 ac3f ca3f d5bf
000001f0: 1e05 a33e 7f19 e5be d481 23bf 8618 4b3f
00000200: ce9c cb3e 3240 513d d491 bbbf a0d4 553f
00000210: f485 36be 1b59 9e3d bb7e 9d3d b463 41bf
00000220: b998 6c40 64b4 b23f 8d53 51c0 1fb5 49be
00000230: 4057 7cbe b917 5dbf 2324 da3d 2e1e 1b3e
00000240: 3f61 b6be 42ea b93e 62a4 90bf 4090 00bc
00000250: bfa1 d83f 79ec 4d3e ee29 14bf 23ab f63f
00000260: 7f71 403f 72a2 f7bd fe3b 773e 91d8 abbe
00000270: 90dc 38be 2c84 b5bd da78 8f3f 901e ae3f
00000280: 2bce fc3e 40f9 893f d977 d83f 1347 c6bd
00000290: 80d2 853d 74ff 7ec0 ccb6 e13c 389a 26c0
000002a0: 1f45 103e f88e 203e c958 ddbc b2da 963f
000002b0: b9bc 3bbf 20ea acbb 7e1b 83bd 08d1 5d3e
000002c0: 8ebb e7bf fb84 a03e 9b81 93be bd51 a0be
000002d0: bc9d 1fc0 6e92 3fbd 3c67 dbbf 7570 40be
000002e0: 46ce debd cd1a 683f 8d70 6ebf a2df a83e
000002f0: bebb 6240 73cc 31bd a7b9 b63f c0b9 5cc0
00000300: cb0f 9f3f 87ad 2140 a344 5a3e e392 58be
00000310: f2b9 13be f97a 773e 796b 953f 89b4 4d40
00000320: fc2d cd3e 259e 3dbe 727c cfbe 0545 3840
00000330: 862e 89bf e02f 9ebe 714f f0bd 0031 6fbe
00000340: e3c5 acbf e06d ad3e 159a 27bb 0ad7 4abe
00000350: 5fbd 1abe a67e 1cc0 9caf 113f fe25 1bc0
00000360: 49d5 3a40 8443 82bd a929 0f3f 11b8 683e
00000370: d3dc 2a40 98a2 3b3e 4ef2 1b3f 29e4 e7bd
00000380: 724b 63bf 601c 21bf bc5b c53d b19f 8f3e
00000390: 2e5c 1ebd a1ef 193e 4809 6bc0 276f 49bd
000003a0: 6039 29bf 8643 f3be 34aa b73e 34b6 f9bf
000003b0: 7d61 513f 3db5 83bf c67d 15bd 05d7 62be
000003c0: 2e80 093f be54 c2bd e73e 83c0 e4ba b13d
000003d0: 16f9 aebf e3cd 1cbf fd95 72bd 794a 783e
000003e0: 9f80 5bc0 c5ee 1540 20cf 07c0 5863 4b3f
000003f0: d5a0 f4bf bd95 2e40 08cb e93f f35b 9abf
-0.4006382 -0.5560012 -1.0022902 2.980099 0.28985482 2.348207 -2.8910263 1.9122742
-1.5067866 -1.6037292 3.117821 1.9292631 0.76196945 0.64977604 -1.4511274 -0.5842542
2.438735 -1.9034644 -0.32168525 -2.7536595 -2.0726101 2.5188482 -0.9069985 -1.5752063
2.994866 0.8132817 1.795932 -0.93582016 -0.22817394 1.8622142 1.1614599 3.3474386
2.0014093 2.2799363 2.5493546 1.3497667 0.71632355 0.38771507 -0.09367614 -0.9613502
3.6532762 0.028336583 -1.420469 0.8411103 1.089542 -3.038584 0.38363707 0.9015386
-0.4182085 2.2569966 -1.032448 2.3726013 -2.6262794 -0.43438682 1.549074 -2.0231574
-1.3355641 1.1837722 1.2182758 -0.036528688 -0.58647925 2.8205554 -1.2976818 3.1573653
0.6792146 0.74748474 0.8540387 -0.4935344 -0.19338338 0.9127575 2.7179244 -2.4048197
-4.4790435 1.3351285 2.6041734 -0.466795 0.047128025 0.8229554 -1.4590207 2.0229268
2.1311743 -2.1007426 0.65792656 -1.6655942 -2.4288378 1.2375345 2.5758567 2.2244127
-1.5507246 -0.40430284 -2.669213 0.37398094 1.96122 -2.712212 1.6469527 2.1809895
3.2900565 1.4774178 2.1676457 0.037445467 -0.0018158549 -2.807642 -1.7162468 -3.9839337
1.5777678 0.73368984 -0.70222753 -0.036168836 0.050426714 0.41736245 -3.51678 1.4122317
-1.3727771 -3.8486402 -0.23662423 0.81241673 3.768023 0.5755435 0.8089454 0.68557113
-1.0228921 0.44547996 1.3481815 -1.6660092 0.31839842 -0.44746014 -0.63869977 0.79334295
0.3976807 0.051086612 -1.4653878 0.83527565 -0.17824537 0.07731839 0.076901875 -0.7554276
3.6968215 1.3961301 -3.2707245 -0.19697998 -0.24642658 -0.8636432 0.10651424 0.15148231
-0.35621068 0.36311537 -1.1300166 -0.007846892 1.6924361 0.20109738 -0.5787648 1.9270977
0.7517318 -0.12091531 0.24143979 -0.33563665 -0.18052888 -0.088631004 1.1208756 1.3603077
0.49376044 1.077919 1.6911575 -0.09681525 0.0653429 -3.9843416 0.027552985 -2.6031628
0.14088868 0.15679538 -0.027019875 1.178549 -0.7333484 -0.0052769333 -0.06401728 0.2166177
-1.8104112 0.31351456 -0.2880982 -0.3131236 -2.4940023 -0.046770506 -1.714088 -0.18792899
-0.10879187 0.90665895 -0.9314049 0.32983118 3.5427089 -0.04340787 1.4275407 -3.4488373
1.2426695 2.5262163 0.21315245 -0.21149783 -0.14426401 0.24168004 1.1673423 3.214144
0.40074146 -0.18517359 -0.40524632 2.8792126 -1.0717323 -0.308959 -0.11733902 -0.23358536
-1.349789 0.3387289 -0.0025574018 -0.19808593 -0.15111302 -2.44523 0.56908584 -2.4241939
2.919268 -0.06360534 0.55922943 0.22726466 2.669728 0.18323743 0.609166 -0.11322815
-0.88786995 -0.6293392 0.096366376 0.28051522 -0.03866213 0.15032817 -3.6724415 -0.04917827
-0.6610317 -0.47512454 0.35872042 -1.9508729 0.8178938 -1.0289685 -0.0364969 -0.22152336
0.5371121 -0.094888195 -4.1014285 0.08678225 -1.3669765 -0.6125166 -0.05922507 0.24247159
-3.4297254 2.3426983 -2.122017 0.7944846 -1.9111582 2.7278893 1.8265085 -1.2059311

pos_emb.weight f4 [256, 124]
00000000: be03 c6be e927 eb3e c0ce 7a3e b9e0 e3be
00000010: 1f7b de3e 005e a9be 8d58 a53e 34c4 65bf
00000020: 469c 2ebf 1c48 a03e 0afa 343f a3a8 b0be
00000030: 303d a4bd e467 bb3f b967 a83e c8af cebc
00000040: c862 bbbe 8d8b 283f baa0 46bf 8244 5c3f
00000050: 2e0e b63f 1edd f63e 5751 58be 9bc7 973f
00000060: 2ab9 f7be cc93 3ebe 0130 bcbd 8603 2bba
00000070: 7458 6f3f 4ad2 563e 07d0 853e 0e9a fbbf
00000080: 346b 17be fd8f 503f 3f1e b2be 9294 313f
00000090: cce4 babe fde7 afbf 51ff 16c0 2b9d 91bd
000000a0: c0d4 67bd 2e38 9c3e fa03 223f 638b 1e3f
000000b0: adbb 7d3f bc53 cf3e 0c41 36bf f50c a33d
000000c0: f91f 503f 2e8e 0cbf d0c7 d53d e86a 78be
000000d0: c0cd 61bd 93db fdbe ded8 4e3f de3a 4c3e
000000e0: 895f 613f 8ddd c93f cc1d bc3e 6392 7bbf
000000f0: 12e0 76bf 7716 fd3d 328b 923d a6a6 47bf
00000100: a491 473f 7358 07be d2e9 8c3e b2e9 81be
00000110: fd76 bdbe 5cad 8a3f ca2c 363f 47af 5ebf
00000120: b83a 503f bf6b 2fbf 2137 343d cc93 913e
00000130: e943 7cbf e597 72bf 71f5 9b3e 9004 173e
00000140: 78b9 0e3f 8b30 03c0 8107 a93e d680 093e
00000150: 3a6a d03e cebc ea3e f25e 413f b48c b63e
00000160: a757 febc 0bb3 a83e b15b 033f 0894 94bf
00000170: 2199 6c3e b1de 0f3f 0ccd 80bf 2ce5 993f
00000180: 9b7a 21bf 1aeb 263f c7f2 463f eac1 8e3e
00000190: c5d8 8ebe 661b 99be b644 a2bf 90c8 e53e
000001a0: f0c2 76bf 74da 4c3f a7a3 9ebe 925b c83f
000001b0: 8b4e 96be 7624 123f 197d a6be c30c 3ebf
000001c0: 2dd2 b03f a202 c0be e608 333f 53de 1abe
000001d0: f6a3 13bf 31e9 153f 2027 1abf 83ee 1e3f
000001e0: 99a0 2b3f bb0f 19be 05b4 58bf 1b49 b63d
000001f0: 2a36 473e 5fca 1c3f 1584 b6be 1b9c 443f
00000200: bf54 04bf 1fc9 5c3e 11a3 16be f480 e0bd
00000210: 88b8 91bf 817c a83f da56 abbe 2e55 87be
00000220: 0cfd 84be ddb1 36be 9cde 45be b144 53be
00000230: 7865 633e 25ab 8a3e b09c 5d3e 8fd1 d1bd
00000240: ed0b d03f a2df 82be 355b 1f3e d997 d1be
00000250: 3a31 f53e bda2 073e d4cb e1be edb4 28bf
00000260: 607b 6c3f 1c0e 263f 785e 43bf fae0 cfbe
00000270: 0802 55be c711 fb3d 6da1 2abf 5d40 b63d
00000280: ec99 3abf 0e51 f7be d9d1 9dbe c3f7 21bf
00000290: cc33 49be 1ec6 0a3f 1216 a03f b5f4 52bd
000002a0: aeb1 803d 5a52 0f3f 7873 e2be 10ad 6c3e
000002b0: c061 4abf 5d52 24bf 3cf5 43bf ad4a 22bd
000002c0: dfc4 7fbf 5ba9 26bf fbb7 8fbf 14f8 993f
000002d0: bc16 27be a225 29be 6826 733f 92cc 03bf
000002e0: 2164 d5be 107a 983e 6227 52bf 3ccc 043e
000002f0: 25c9 b1be ecf6 9abe 401a 893e 0f3e 1dbf
00000300: 8bf0 ccbe afcd 1c3d 302b ed3d aa2e 983e
00000310: 5185 d8be bf9e 75bd 2d12 753f f636 af3d
00000320: c75a 03bf 045e 94bf 4b7a da3d 67f6 073f
00000330: 78c8 c3bd 6063 fabe a33b 643f 56a9 9abd
00000340: 7e8c 213f 077e 3f3d faa8 673d 804f eb3e
00000350: 65a0 5abe 7526 063e 5eba ca3d ae82 88be
00000360: 5fa7 13bf 680a 093f cfbc b23e 42a9 dd3e
00000370: a335 523d 1888 823f 4a58 e7be 1a10 20be
00000380: fb94 b8be e054 343f 66b4 dfbe 0cf7 f3be
00000390: a21f be3e 31e3 4a3f 0b98 54be 7dfd a03e
000003a0: d2e9 07bf 43c5 1d3f 1eaa 9a3e 0d9c 853d
000003b0: 45a3 413e 9c57 51be e791 4e3e 2aea 8e3d
000003c0: 65d8 34bf 0ea6 823f 9fab 933d 426f 3b3f
000003d0: c7ca e6bd a44d 8b3e 64e3 83bf 7e2f d53e
000003e0: 2d94 fd3d 93eb c4be 8631 37bf e488 013f
000003f0: ca59 063d f2df a6bd 80c2 a0be 74e8 ecbe
-0.3867473 0.45928887 0.24492931 -0.44507387 0.4345331 -0.3307953 0.3229412 -0.8975251
-0.68207204 0.31305015 0.7069403 -0.3450366 -0.08019483 1.464108 0.32891634 -0.025230303
-0.36598802 0.6583794 -0.77589 0.86042035 1.4223077 0.48215574 -0.21124779 1.185779
-0.48383456 -0.18611068 -0.091888435 -0.00065236574 0.93494344 0.20978656 0.26135275 -1.9656389
-0.14786988 0.8146971 -0.347887 0.69367325 -0.36502683 -1.3742672 -2.3593333 -0.071100555
-0.05659938 0.30511612 0.6328732 0.6193144 0.99114496 0.40493572 -0.71193004 0.07961456
0.81298786 -0.5490445 0.10438502 -0.24259531 -0.05512786 -0.49581584 0.80799663 0.19944331
0.880364 1.5770737 0.36741483 -0.98270243 -0.96435654 0.123578005 0.07155456 -0.7798866
0.77956605 -0.13217334 0.2752214 -0.25373608 -0.37004843 1.0834155 0.7116209 -0.869862
0.813396 -0.6852378 0.043997888 0.28433073 -0.9854112 -0.9476302 0.30460694 0.14747834
0.5575175 -2.0498378 0.33013538 0.13428053 0.40706044 0.45847172 0.755355 0.35654223
-0.031047655 0.329491 0.51311785 -1.1607676 0.23105289 0.56199175 -1.0062575 1.2023063
-0.63077706 0.65202487 0.777142 0.2788232 -0.27899757 -0.29903716 -1.2677219 0.4487958
-0.963912 0.80020833 -0.30984232 1.5652945 -0.293568 0.57086885 -0.32517317 -0.7423822
1.381414 -0.3750201 0.6993545 -0.15123872 -0.5767206 0.58558947 -0.6021595 0.6208269
0.6704193 -0.14947407 -0.8464969 0.089006625 0.19454256 0.61246294 -0.35647646 0.768007
-0.5169181 0.21561097 -0.14710642 -0.10962096 -1.138444 1.3162996 -0.334647 -0.26432174
-0.2597431 -0.17841287 -0.193232 -0.20631672 0.22206676 0.27083698 0.21641803 -0.10245048
1.625364 -0.25561243 0.15562136 -0.40936163 0.4788912 0.13245673 -0.4410082 -0.6590107
0.92375755 0.6486528 -0.7631602 -0.4060133 -0.20801556 0.1225925 -0.66652566 0.08898995
-0.72891116 -0.48304027 -0.30824164 -0.6326868 -0.19648665 0.5420855 1.2506735 -0.051502902
0.0628389 0.55985034 -0.4422872 0.23112893 -0.79055405 -0.64188176 -0.7654607 -0.039621998
-0.99909776 -0.65102166 -1.1228021 1.2028832 -0.16317266 -0.16518262 0.9498048 -0.51484025
-0.41677955 0.29780626 -0.82091343 0.12968534 -0.34723774 -0.3026651 0.2677784 -0.6142282
-0.4002727 0.038282093 0.11580503 0.29723102 -0.42289212 -0.059965845 0.9573086 0.08555405
-0.5131039 -1.1591191 0.10667857 0.53110355 -0.09559721 -0.48903942 0.891535 -0.075518295
0.63105 0.04675105 0.056557633 0.4595909 -0.21350248 0.13100608 0.09898828 -0.266622
-0.57677263 0.53531504 0.34909675 0.43293196 0.051320683 1.0197783 -0.45184547 -0.15631142
-0.36051163 0.7044201 -0.4369232 -0.4764942 0.3713351 0.79252917 -0.20761125 0.31443396
-0.53091156 0.6162912 0.30207914 0.06523905 0.18909939 -0.20443577 0.20172845 0.06978257
-0.7064269 1.0206926 0.072104685 0.7321664 -0.112691455 0.27207673 -1.0303769 0.41637796
0.12381778 -0.3846098 -0.7155994 0.50599504 0.032800473 -0.08148183 -0.31398392 -0.46271098

gru_cell.weight_ih f4 [372, 248]
00000000: 2ccd 393d 5066 c63d 00af 0b3e c6c5 7abc
00000010: f039 253e 7ba9 27bd 7124 8bbd 930b 0cbb
00000020: c016 d43c 100b f3bb 29e3 25bd 94d0 343c
00000030: 3dcc 71bd d32c ff3d e616 08bd e973 50be
00000040: df13 e1bd 023d 3ebb 9322 733d 5c06 283d
00000050: 2082 b63c f209 04be 771f 4c3c 2ad4 173d
00000060: ed18 893b 4325 f53c 74c0 513d 9c68 e9bd
00000070: 2c2b b4bc 77b1 1c3e 6fbd 1abd 812d ebbb
00000080: 8334 94bd 168a 993c 09b4 bf3d f377 913d
00000090: 0747 85bd f175 fbbc 8f24 1a3e 5300 113d
000000a0: 5548 943d 0b8d a3bd 1108 773c 5f9e 1c3c
000000b0: 3b50 0d3d b223 aa3d b872 46bb 0965 083e
000000c0: dec1 7f3d 4990 ba3c 5848 28be 898e 9bbd
000000d0: 3042 ed3c e625 a13d 7d89 923d 09ab 2b3e
000000e0: 9697 9ebc ed8f 473d 33cf 15bc 629c 5abd
000000f0: 6c1f c33d ee9a b43d ddd4 8c3d 6940 8e3c
00000100: 4376 fd3c d8e2 14bc 2aed e1bc 7c3a f5bd
00000110: 00ea f7bd 74af debd c02e 2ebe f10f f63c
00000120: b0bd 213e 3ede 9b3d 5c23 b33d 51c1 8b3b
00000130: 04f3 b73d 659a 00bd ce73 06be 9b03 643d
00000140: 87dd d3bd 4f07 383d 574e 11bb 8288 2cbd
00000150: d173 3e3c 0823 f2bc bd91 a0bd f2fe 303e
00000160: 5db9 973c aa2e 35bd a31a 4c3c ba86 7b3d
00000170: 319e 17bd 9d91 3a3d cbdb bd3d 2e93 11bc
00000180: 36d3 27bd 39d9 1f3c 473a 3a3e b4a7 a6bd
00000190: 9c92 35bd 74a0 7fbc a390 f83d f8de 55bd
000001a0: 32f8 913d 633a c83c fcab 57bd fef5 cb3d
000001b0: 4a84 1fbd 5653 12bd 90c1 61bd 78cf 05be
000001c0: 0fb8 593d 7605 4dbd d32b 1a3d eaae e3bb
000001d0: 9f42 15bd c4b0 1ebd f6e6 f0bd ec1c b43a
000001e0: a0df 60bc dbaf 273c 367b b9bd dcb1 2f3d
000001f0: e3e4 053f d599 e13c 9d66 a33e d779 f4bd
00000200: e183 3a3e 8415 e1bd 6c05 7abd acdb 333e
00000210: b896 003f 39fc ef3e bce9 4f3e 9884 a3bc
00000220: c941 c7bd 1835 b93d 310e d8bc 5361 90be
00000230: 26a8 4d3e 4bf2 8cbe bbe4 babc 14c2 3dbd
00000240: a03f 3c3d a6f3 42be 779b 87be 1442 6e3e
00000250: aa6c ccbe faf9 13bd 308a ba3e 378c 4f3e
00000260: 7fde 5c3d 0835 c13d acea 00be fd05 7b3e
00000270: 3f6c 56bd 65f5 783d 11d7 f7be 40b4 24be
00000280: a028 d3be a4c6 95be 9d5b 0abe b27a 563d
00000290: ec97 e3bc 53ad e43d d061 0cbf 26a6 4c3d
000002a0: 1b82 3fbf 2619 683e 3d7a 753e 58d9 52be
000002b0: 54cd 57be 7eef 803e f14b 6bbd 3086 373f
000002c0: d239 56be 92a2 fdbe 8067 a0be 49a8 d5be
000002d0: c0d6 b5be e118 06be 12d7 81be 6a53 d4bd
000002e0: 8cd2 26bf 55f9 38be 58bb 24bd 1485 8cbe
000002f0: b883 d33c 1b4c 3fbe 211e d13d 5606 dcbe
00000300: 6ace cdbe 40e6 aa3e acc1 1cbe f604 14bc
00000310: 746f a93e d18e 5e3d 31cd c1be 2b6b 3abf
00000320: 43c6 8b3e 4633 41be 9b13 d2bd 8bd0 213e
00000330: b269 cdbd 51be 1a3e 14b9 b03c f74e 9bbd
00000340: d3a3 7abd cf2e 06bf 986a 213e b573 2ebe
00000350: f829 59be 66b1 c43d b25d 583e f817 75be
00000360: 4a97 863e cfc6 1a3e 5dab 043d c38d b4bd
00000370: 103b 63be a343 80bd 3644 18be 8708 b4be
00000380: 4fe3 ec3c fd7f 71be 7338 a4bd 0d6a 553e
00000390: f63b 3c3e 963f d9be d911 17bd 6c9a bebd
000003a0: 6659 0fbf 820d 313e b629 fdbe 8e8b 063e
000003b0: 9da7 b53d 758c 53bd 2a6f 27bf 60c2 8bbe
000003c0: 6a96 04bc b7bd e9be 017b 793e 05a6 713e
000003d0: 5e7e 39be 4377 3b3e 6a30 e03e 5c3d 4e3c
000003e0: f17a 87bd 2e66 f6bd 8006 743b 0d2e eb3c
000003f0: 33cd 4cbd e120 d13d e261 45bd 6de6 8f3d
0.045361683 0.09687483 0.13640976 -0.015305942 0.16135383 -0.040933114 -0.0679406 -0.0021369203
0.025889754 -0.0074170902 -0.04049984 0.011036057 -0.059032667 0.124597214 -0.033224963 -0.20356716
-0.10990118 -0.0029028063 0.059359144 0.04102169 0.022278845 -0.12894419 0.012458674 0.03706757
0.0041838796 0.029924994 0.05120893 -0.11396906 -0.021993242 0.15302072 -0.037778314 -0.0071770553
-0.07236578 0.018742602 0.09360511 0.071029566 -0.06507688 -0.030695887 0.15053008 0.0354007
0.07240359 -0.07985886 0.015077607 0.009559243 0.03450034 0.083075896 -0.003028078 0.13319792
0.062440746 0.022773879 -0.16433847 -0.07595546 0.028962225 0.07868557 0.0715513 0.16764463
-0.019359391 0.048721243 -0.009143638 -0.053371795 0.095274776 0.08818613 0.06876538 0.017364698
0.03094018 -0.009087287 -0.027578909 -0.11974046 -0.12105179 -0.10873309 -0.17010021 0.030036898
0.15795016 0.07610749 0.08746979 0.0042649885 0.089818984 -0.031397242 -0.13130113 0.0556675
-0.10344987 0.044928845 -0.0022171938 -0.04212237 0.0116242925 -0.02955772 -0.07840297 0.17284754
0.018521005 -0.044233955 0.012457523 0.061407782 -0.037016097 0.045549024 0.09270438 -0.008885188
-0.04097291 0.00975638 0.18186294 -0.081374556 -0.04432927 -0.01560222 0.12136962 -0.052214593
0.071274176 0.024441903 -0.05265425 0.09959029 -0.03894452 -0.035724007 -0.055116236 -0.13067424
0.053154048 -0.050054036 0.03763945 -0.0069483416 -0.036440488 -0.038742796 -0.11762802 0.001374153
-0.013725191 0.010234798 -0.09056704 0.04289423 0.5230238 0.027539173 0.31914225 -0.119373016
0.1821437 -0.10990432 -0.061040327 0.17564267 0.5022998 0.46872118 0.20304006 -0.019960687
-0.097293444 0.0904333 -0.026373954 -0.28199252 0.20083675 -0.27528605 -0.022814145 -0.046327665
0.045959115 -0.19038257 -0.26485798 0.23267394 -0.39926654 -0.036127068 0.36433554 0.20268331
0.053923126 0.09433943 -0.1258952 0.24514003 -0.052349325 0.0607809 -0.4840627 -0.16084385
-0.41241932 -0.29253113 -0.1351151 0.052363105 -0.027782403 0.111658715 -0.5483675 0.04996314
-0.748079 0.22665843 0.23972411 -0.20590723 -0.2107442 0.25182718 -0.05744547 0.7168913
-0.20920494 -0.49538094 -0.31328964 -0.41729954 -0.35515404 -0.13095428 -0.25359398 -0.103674725
-0.6516502 -0.18063863 -0.040217727 -0.2744528 0.025819644 -0.18681376 0.10210825 -0.42973584
-0.40196544 0.33378792 -0.15308255 -0.009034386 0.33092844 0.05433542 -0.3785186 -0.72819775
0.272997 -0.18867216 -0.10257646 0.15802209 -0.100299254 0.15111662 0.021572627 -0.07583421
-0.06119139 -0.52415174 0.15763319 -0.17036326 -0.21207416 0.096041486 0.21129492 -0.23934925
0.262873 0.15114902 0.032389987 -0.088161014 -0.221905 -0.06262901 -0.1486977 -0.35162756
0.028916983 -0.2358398 -0.08018579 0.20841236 0.18382248 -0.42431325 -0.036882255 -0.093067974
-0.55995786 0.17290309 -0.49445885 0.13139173 0.0886986 -0.051647622 -0.65404 -0.27296734
-0.008092502 -0.45652553 0.24363329 0.23598488 -0.18114612 0.18307213 0.43786937 0.012587871
-0.06615246 -0.12031208 0.003723532 0.028708482 -0.05000038 0.10211349 -0.04818905 0.07026372

gru_cell.weight_hh f4 [372, 124]
00000000: 4d49 d9bc a2c6 e5bc 8034 ab3c daed 193d
00000010: a0a1 f1bc b77e ddbd e41f 12bd c256 d0bc
00000020: 6088 a8bb 893e c43d 5f18 89bd 1c5a e5bb
00000030: 5326 293c 702e 86bd 7485 843d 5c87 31bb
00000040: 25ce cfbd fc3f 683b e405 bb3c f451 cbbc
00000050: 43e3 dbbb f82d 7f3c 1f43 05bd 32e7 bfbc
00000060: b796 dfbb 1373 cabd 8663 c43d 503c a7bc
00000070: 8f32 383d 3e1f b63d 1b22 913d 3a7a 343b
00000080: 5a04 2abc c3ef b63d 6fc7 873d ecd8 cfbd
00000090: 0acf 5c3d df83 ebbc be79 a0bd 2fe5 703d
000000a0: 8ffa 843d e99b 573c 6d66 053c a94b 6d3d
000000b0: a726 b8ba b5cf b93c 809e 86bd f446 803c
000000c0: a69d 7a3d 6025 9f3c f359 e23c 319b 22bd
000000d0: 2756 3bbd e086 c6bd 1af6 d93a b01b 823d
000000e0: 57bd f13c 97cc f23c d6a2 28bd aeed c5bc
000000f0: 3bbb bf3a 5b88 95bd c944 e7bb f862 c33d
00000100: ebc4 0dbd da66 a1bd 6f24 1b3d 1f95 18be
00000110: 173a 783d d63f e83c b31c 703d ed11 393c
00000120: 7b87 163d 5607 8bbd 9e97 aa3d 961a 11bc
00000130: f256 8d3d 13b2 9e3d 93eb b23d 741c 123d
00000140: bd30 073d d852 723d 7979 6e3d afd3 6c3d
00000150: cffe 99bd 9c18 fab9 b509 eeba 2814 3a3d
00000160: e9ec 60bd e9ff 7dbc 9bfa 403d 4123 64bd
00000170: c47d 27be 5ca2 4fbd f030 30bc 4c9e d5bd
00000180: 3dcf 263e fcfa dcbc 478c d73d 1e10 a23c
00000190: b987 15bd 159e 13bd 72c2 b53d 49bb 593c
000001a0: 1862 0cbd 95f3 953d d817 0abe 1caa 683c
000001b0: 4707 153d 23af b83c d1eb 7a3d 2c15 57bd
000001c0: b1a7 e3bc 6c00 89bd 1d6d 9c3d f2a2 0cbd
000001d0: a40a 9abc dd19 9cbd 8812 39bd 1d71 e4bb
000001e0: 5a53 213c e15e 9cbd 9af8 45bd 391a c13d
000001f0: e8d9 6bbd 51ba cf3d 7373 163d 303a a4bd
00000200: 0bb8 24be 8763 97bc ecd4 adb9 2ff2 133d
00000210: af0c 223c 8b2b 17bc f6c1 233d cc12 b5ba
00000220: cc8a 8c3d 84b7 80bd 7534 edbd 7cd7 f9bb
00000230: 0498 b23d c92d 1c3d 189d 1c3e 6e5a 093e
00000240: 0074 d93d 2338 0d3d 9172 1a3b 92bb 4cbd
00000250: 30bd d93d 4d73 bebc 6c23 d2bd 7cd1 14be
00000260: cde0 7ebd 888f c4bd dcf8 7c3c 9644 bc3c
00000270: 670d 633b d33d 83bb d2d9 3f3c 599b 023e
00000280: 85a1 aa3d 0e7e b23b 7002 18be 9b5f 84bd
00000290: f28f aa3d f7ef 593c e159 acbb ac8e 19bd
000002a0: d905 a4bd da2d 8b3d dd14 65bd 5cfa 08bd
000002b0: a0e6 f43c ff16 6abd 72c1 4ebc 45e0 133c
000002c0: f360 df3c 8b3b 9c3c 152f 983d d213 7cbd
000002d0: 4a83 353b bffd 53bd 1a82 0e3d e308 f03d
000002e0: bd48 9dbd f8a7 953b ab88 c4bd a20e 35bd
000002f0: 3c73 a9bd afdf a9bd 7b1e 89bd 6a97 52bc
00000300: e0f0 b73d 51c0 0f3e e9d5 bbbc a7a5 883d
00000310: c916 f4bd 0431 903b 548b d73d ba52 bd3d
00000320: c855 193a dbd1 a3bd 61d2 823d c5ad 08bd
00000330: b8dc f53c 15a4 96bd 1b54 603c fbe7 1f3e
00000340: 32a4 5a3e aa62 21be 950c 29be d4ea 7439
00000350: 834e 06bd 8ef3 cfbd b4e9 5c3c e83c 5a3d
00000360: a49a 703d 5d53 1ebc 1bc0 933d e21c 473e
00000370: 6855 92bd 200b a5bd 26b6 663c 2708 ad3c
00000380: 2b8f 39bd c1fa 083d d329 86bd f481 793d
00000390: d484 203e 7219 183e 76dc 233d 0167 a23d
000003a0: 7d93 093d a3b6 583d 3000 6ebc ee3c ecbc
000003b0: 22e4 42bd d105 c1bd e959 9ab8 c7c8 b03d
000003c0: 6da7 73bd 9ae5 5fbd 40a9 123d 1fe8 293e
000003d0: d77d 383c e600 13be 824f c0bd 80df a4bd
000003e0: fb42 a7bd c161 58bc cc1c 80be 446f 773c
000003f0: 343d 14bd 9c05 bfbd a58f fc3c bc61 833c
-0.02652421 -0.028048817 0.020899057 0.03758035 -0.029496014 -0.108151846 -0.035674945 -0.025431994
-0.0051432103 0.0958224 -0.066941015 -0.0069992673 0.010324079 -0.06551826 0.06470767 -0.0027088737
-0.10146741 0.0035438528 0.022829957 -0.024819352 -0.0067104413 0.015574925 -0.032534715 -0.023425672
-0.0068233865 -0.0988523 0.09589295 -0.020414501 0.04497009 0.08892678 0.07086583 0.0027538673
-0.010377014 0.0893245 0.06629836 -0.101487964 0.053908385 -0.028749404 -0.078357205 0.058812317
0.06493103 0.0131597305 0.008142096 0.057933483 -0.0014049605 0.02268205 -0.065732 0.015658833
0.0611855 0.019427001 0.027630782 -0.039698783 -0.04573646 -0.09693694 0.001662913 0.06352937
0.02950923 0.029638572 -0.041170917 -0.024161186 0.0014627943 -0.07301398 -0.0070577604 0.09540361
-0.034611624 -0.078809455 0.037876543 -0.14900635 0.060602274 0.028350752 0.05862112 0.011295778
0.036750298 -0.067885086 0.083297 -0.008856436 0.06901349 0.07748809 0.087363385 0.035671666
0.033005465 0.059161037 0.058221314 0.057819065 -0.07519304 -0.0004770205 -0.0018160852 0.04542938
-0.054913435 -0.015502908 0.047113996 -0.055697683 -0.1635657 -0.050691947 -0.010753855 -0.10430583
0.16289993 -0.026975147 0.10524803 0.019783076 -0.03650639 -0.03603943 0.08874978 0.013289281
-0.034273237 0.0732185 -0.13485658 0.0142007135 0.036383893 0.02254445 0.06126005 -0.052510425
-0.027789922 -0.066895336 0.07637999 -0.034335084 -0.018803902 -0.076221205 -0.04518369 -0.006971492
0.009846533 -0.07635284 -0.048332788 0.0942883 -0.05758086 0.10142959 0.036731195 -0.08018911
-0.16085832 -0.018480076 -0.0003315577 0.036119636 0.009890719 -0.00922669 0.039979897 -0.0013814806
0.06862411 -0.06285003 -0.11582271 -0.0076245647 0.08720401 0.0381296 0.15294302 0.13413402
0.10617828 0.034477364 0.0023566822 -0.04998357 0.10631788 -0.02324834 -0.102606624 -0.14533037
-0.062226105 -0.09597689 0.015440192 0.022981923 0.003464544 -0.0040051728 0.011709647 0.12754573
0.08331589 0.005447156 -0.1484468 -0.06463548 0.08328237 0.013301841 -0.005259738 -0.037489578
-0.08008928 0.06795855 -0.0559281 -0.033441886 0.029895127 -0.057150837 -0.012619363 0.009025638
0.027267909 0.019071361 0.07430855 -0.06154234 0.0027696663 -0.051755663 0.034792043 0.11720445
-0.07679889 0.0045671426 -0.0959638 -0.044203408 -0.08273932 -0.082946174 -0.06695267 -0.012853483
0.0898149 0.14038207 -0.022929149 0.06672221 -0.119184084 0.0044003744 0.105246216 0.092442945
0.0005849269 -0.07999011 0.06387783 -0.033368845 0.030012473 -0.07355515 0.013691927 0.15615837
0.21351698 -0.15760294 -0.16508706 0.00023357134 -0.03278972 -0.10153876 0.013483454 0.05328074
0.058741227 -0.00966343 0.072143756 0.19444612 -0.07145196 -0.080587626 0.0140815135 0.021122051
-0.04530255 0.033442263 -0.06550946 0.06091495 0.1567567 0.14853457 0.04000517 0.07929803
0.03358792 0.05290855 -0.014526412 -0.028837647 -0.047580846 -0.094249375 -7.360039e-05 0.08632045
-0.05948584 -0.054662324 0.03580594 0.16592453 0.011260471 -0.14355811 -0.09390165 -0.08050442
-0.081670724 -0.0132069 -0.2502197 0.015102211 -0.03619118 -0.09327242 0.030830214 0.016037814

gru_cell.bias_ih f4 [372]
00000000: 3fc6 a4bd d287 4bbd 6c44 28bc 00d6 953e
00000010: 9e64 cc3d c67b 673e 2b08 263e 64e9 1f3c
00000020: e76f f13d 2865 a93d 1744 d6bb 523e 6fbd
00000030: 6cc3 c7bc 0720 6a3e 5ffb 163e bd81 0d3d
00000040: c316 8abb 9799 8f3c a337 2abe b562 94bc
00000050: 043e 333e 9012 353d cc55 68bd 5868 cf3d
00000060: 526a ce3d f012 603c 13c0 1f3d b1e6 33be
00000070: f57e 243e 7e56 16be f743 773e 65c0 103e
00000080: b27d 96be 0a35 db3e f57d c23e 25ac fabd
00000090: 5673 393d baed cf3d 7dab 693e e552 293e
000000a0: 044a f33c 11ac 7b3d 0492 febb 6e8d 963d
000000b0: 2946 61bd c909 2b3e 9bca 15bd 4e12 00be
000000c0: 7980 883d 24d7 ff3d e5f0 f8bd b07d 8abc
000000d0: 529c 423e 82be abbc 5c75 833e 2aa2 f43d
000000e0: 996b 93bc b0e2 76be 0fc9 3e3d 4109 d73d
000000f0: 5ae9 2b3d acc4 7b3e 8cbe 55bd a9fd 84bc
00000100: 52a5 203d aad2 853a 07b8 583d 4dd4 7ebc
00000110: 8e28 75bd 9b88 c13c ee21 39bd d3cc 733e
00000120: 0ace 1a3e 8b06 913e a5dd 473e 3a67 193b
00000130: 5e16 87bd 2feb 443d c911 bbbe 8e2e 96bc
00000140: 1a98 413e 3e58 c23e db1b aebd 819f 32bd
00000150: 92fb a83c 9b22 913d 9a4a bb3d e38f 3d3d
00000160: 4a98 f9bc 50d3 dabd 8109 293e 166b 60bd
00000170: 13fa d0bc 4d99 563e 3100 d13b c996 d43d
00000180: bea1 563e f7f0 053a 7cc5 cfbc 332a bfbc
00000190: e7d6 17bc e5a2 943d cb4a a2bc d2b7 9cbd
000001a0: 6751 9f3d 926b f23d d76a 9b3c ca9f 423e
000001b0: 3657 393e 0c18 3e3c ea5a a93d 931f 363d
000001c0: 2ea9 bfbd 5ab4 efbd 5949 4b3e 48a3 3b3e
000001d0: 6908 613e 4c24 79bd d4c1 843d 1a96 043d
000001e0: 0ce3 5d3c bba9 a53d f3c8 943d 1e85 4bbc
000001f0: b580 4bbd 8770 ad3b 57f7 8c3e 3bb8 adbd
00000200: c4aa 743e ea9e 85bd 3584 7dbe 700e 47be
00000210: dfb6 36be 31b1 d33d 12d1 1bbe 0fdf 8fbe
00000220: 3fe3 44be 2e1c d53d 06e7 58be f9ea 31be
00000230: 29d0 303e 7c1d 1bbd 1113 c1be d29b 4cbe
00000240: eac1 78bc abb1 a3be ab28 93be f974 84bd
00000250: 8917 c6bd 6555 88be fee1 39be e358 82bd
00000260: e6c0 11be 5aab d1be 472f 04be 0938 67bd
00000270: bbff ccbd 26b0 38be 46ec 98be 6b7e ffbd
00000280: 5c87 c1bd 66a8 9d3d d211 5abe 2bb2 c33c
00000290: 7870 fd3b f6db 85be d60a 3fbd ee2c acbd
000002a0: bf0c 6dbe 4383 5cbe 0574 31be a0a4 6abd
000002b0: cc87 42be d526 3abb d4b5 55be d876 90bd
000002c0: ca6e 83be e64d 85be c3d1 ffbd 51d1 52be
000002d0: a172 b7bd 213a 193e 9ef7 e3be de0d 6d3c
000002e0: fbf7 693d 89e7 bfbd 182b a6be 2f69 d1bc
000002f0: ddb5 bcbe 642f 133c 30ac c3bd d157 cdbd
00000300: 6189 b03b e447 a4be 689d fdbd bc35 80bd
00000310: fc28 81bd d596 acbe 469e 58bd 5ff8 f0be
00000320: b170 ab3e 4f63 90be 5ed1 14be 4b5c d03d
00000330: d4cb 40be d934 75be 2ccb ec3d 941a ac3c
00000340: 0448 4ebd e976 8c3d b943 4dbe 33df c0be
00000350: 108d 903c 86ab b7bd 1edc a4be 0131 28be
00000360: e9f4 66be 15bd b4be 7a45 21bf 1b3d a83e
00000370: 7a1c 833d df5f 4abe 8eef 643b 2139 7ebe
00000380: 3124 29be 4e92 05be 47fe 1a3d 36c9 fdbd
00000390: 7d11 fabd b2ac 91bc 30a9 983d 585d dabc
000003a0: cd5d 7dbd e414 7ebd 8744 83be 7faa 0abe
000003b0: 1556 aabe 2643 81be 12d8 a1be ccf6 a4be
000003c0: c947 9fbe fa60 afbd 1689 b4be 4a04 86be
000003d0: 5b54 e73d 2324 93be a437 6abe f254 ddbe
000003e0: f70f dbbc 2672 3d3e 9d80 34bd 5eb4 8dbd
000003f0: 690f 93bd d881 bfbc 7f8d 2d3e 5e58 66bd
-0.08045625 -0.049690075 -0.010270219 0.29264832 0.09980129 0.2260581 0.16214053 0.0097602345
0.11788922 0.08271247 -0.0065388787 -0.058409043 -0.024385177 0.2286378 0.14744328 0.034547556
-0.004214139 0.017529292 -0.16622786 -0.018113473 0.17504126 0.044207156 -0.056722447 0.10127324
0.10078873 0.01367639 0.039001536 -0.1756847 0.16064055 -0.14681432 0.2414702 0.14135893
-0.29392773 0.42813903 0.37986723 -0.12239865 0.04527601 0.101527646 0.22819324 0.16535528
0.02969838 0.061443392 -0.0077688713 0.07351194 -0.05499855 0.16702951 -0.036570173 -0.12506983
0.06665129 0.12492207 -0.12155322 -0.016905636 0.19004944 -0.020964865 0.25675476 0.11944993
-0.017995642 -0.24109912 0.046578463 0.10499812 0.04197059 0.24586743 -0.052183673 -0.016234236
0.03922016 0.0010209878 0.052909877 -0.015553546 -0.05985313 0.023624709 -0.045198373 0.23808603
0.1511766 0.28325304 0.19518144 0.0023407475 -0.06596063 0.04807585 -0.36537006 -0.018332746
0.18905678 0.37957948 -0.08501407 -0.043609146 0.02062777 0.070866786 0.091450885 0.0462798
-0.030468125 -0.10684836 0.16507532 -0.054789625 -0.02550987 0.20956917 0.0063781966 0.103803225
0.20960137 0.0005109454 -0.025362723 -0.023335552 -0.009267545 0.07257632 -0.019811055 -0.076522484
0.07779198 0.11836924 0.018971844 0.19006267 0.18099675 0.011602413 0.082692936 0.044463705
-0.0935844 -0.11704321 0.19852199 0.18324006 0.21975864 -0.06082563 0.06482282 0.03236971
0.013542902 0.08089014 0.072648905 -0.012421874 -0.04968329 0.0052929553 0.27532455 -0.08482405
0.23893267 -0.06524451 -0.24757464 -0.19439101 -0.17843197 0.10336531 -0.15216473 -0.28099868
-0.19227313 0.104057655 -0.21181878 -0.17374791 0.17266907 -0.037869915 -0.3770986 -0.19981316
-0.015182951 -0.31971487 -0.28741965 -0.06467623 -0.09672458 -0.2662765 -0.18152615 -0.0636461
-0.14233741 -0.40951043 -0.1290866 -0.056449924 -0.10009714 -0.18035945 -0.29867762 -0.12475284
-0.09449646 0.07698135 -0.2129586 0.023888668 0.0077343546 -0.2614438 -0.046641193 -0.08407007
-0.23149393 -0.21534447 -0.17329414 -0.057285905 -0.18997115 -0.0028404493 -0.20870143 -0.07053918
-0.25670463 -0.26035994 -0.12491181 -0.2058766 -0.089574106 0.1496358 -0.44524854 0.014468638
0.05712126 -0.09370334 -0.32454753 -0.02556285 -0.368575 0.008983467 -0.095543265 -0.10026515
0.0053874706 -0.32086098 -0.123835385 -0.06260249 -0.06306645 -0.33708826 -0.052885316 -0.47064492
0.33484414 -0.28200766 -0.14532992 0.101738535 -0.18827754 -0.23945941 0.115621895 0.021008767
-0.05036165 0.06858618 -0.20045365 -0.37670287 0.017645389 -0.089682624 -0.32199186 -0.16424944
-0.22554363 -0.35300508 -0.6299664 0.3285912 0.06401916 -0.19763134 0.0034932825 -0.2482648
-0.16517712 -0.13044092 0.037840154 -0.123918936 -0.12210367 -0.017782543 0.07454145 -0.026655838
-0.061857034 -0.06203164 -0.2563822 -0.13541602 -0.332688 -0.25246543 -0.3161016 -0.3221954
-0.31109455 -0.08563419 -0.35260838 -0.26175147 0.112953864 -0.28738508 -0.22872788 -0.4322887
-0.026741011 0.18500575 -0.044067968 -0.06919168 -0.07180674 -0.023377344 0.16948508 -0.056236617

gru_cell.bias_hh f4 [372]
00000000: 29d7 08be 88e2 7d3d a5d7 28bd 657b 533e
00000010: 6552 c83d 42ec 5d3e d72b 1a3e d5ac 8abb
00000020: 1933 223e 008a a23c 4890 c9bc c4e5 7e3c
00000030: 94ac 9d3c 8afc d53d 1234 3e3d 470c ea3c
00000040: 3350 c6bc f1f4 183e ad50 0abe 201d 18bd
00000050: 68eb 1d3e e0da 063c 9d86 9abc 7470 f03d
00000060: dee1 e1bc eede 20bd 24ee 6a3d f2bc f3bd
00000070: 64ee 453e 0ed0 05be 42fd 563e 5018 443d
00000080: 3b1e 8ebe ca35 f53e 25e7 833e 87eb 1cbe
00000090: 8ab8 00bc 01ea ad3d 6ce9 653e c87f ff3d
000000a0: 41e6 0f3d 6ee5 ed3c a758 a73d 9a1b e63c
000000b0: ec23 103c dea1 7c3e da0f 083d ac0c 86bc
000000c0: a51a 1cbd 6480 0d3e 05d0 60bd 4604 e03c
000000d0: 45a3 163e a1a6 f4bd 9570 9e3e 3b81 143e
000000e0: a834 7f3c baa9 24be 1757 543d 258d 0c3d
000000f0: b1df a63c ed37 093e f60d 0dbe 1512 0fbc
00000100: c6c1 273c 36f3 f73c 0b3a 4f3d 2242 cbbc
00000110: 0c56 aabd 870d 5e3c f238 dfbd 4a68 133e
00000120: 7dbd aa3c 22e8 5b3e 4332 263e 4b47 7cbc
00000130: 4f38 0bbd e916 81bb f348 b0be 6aeb b8bd
00000140: 0098 fc3d 3438 f23e 2ff9 153d 7b6a 3abd
00000150: 1c7f ea3d 8af4 14bd 86b6 553d ad6b ac3d
00000160: 055c a4bd 3de0 05be de7a 3d3e 9a82 a9bd
00000170: 482c 533d 8177 2e3e 7443 76bc bfeb 903d
00000180: d948 5d3e e955 8a3d f2d6 193d 1b24 08bd
00000190: 0b99 4bbc 4e62 ff3d 9adf 3c3d b70c 96bd
000001a0: 74ba cb3d 3c4b 003e 2e8b 8b3c 2f93 683e
000001b0: 61a0 bf3d a24b ea3d cae3 b63d daa8 523d
000001c0: f0e2 b0bd 761b 83bd dfa2 503e 1aab 5a3e
000001d0: fb26 373e 37ea 81bc 4e1a a53d 24aa df3c
000001e0: 883f 063d 9500 703d 81f0 b3bb 9728 6b3d
000001f0: da14 63bd 7bae 963c c9b0 273e 2aad 85bd
00000200: 9717 fc3d ae3d 1cbd f89d 8abe 0dad 48be
00000210: 7cb4 88be 2799 783e 64b1 49be 44f1 84be
00000220: 5f8f 7bbe f40a 073e b6e6 7dbe 8da3 9dbd
00000230: 90da 3c3e 7dfd fbbd 419d b0be 632a 7bbe
00000240: e95f 823d 3fb4 84be 298c 8dbe 74a3 d5bc
00000250: ef96 56bd 86d6 77be cba5 32be 7d46 f3bd
00000260: 3e9a fcbd 91da 9dbe aa5b 55be df58 2ebd
00000270: 6e85 1fbe c097 9cbd 89f4 d1be 319b 2ebe
00000280: 755d d2bd 7d6f 0a3e 2526 25be f48f 83bd
00000290: 765e 003d 04f0 96be 1936 38be 0d91 dabd
000002a0: fc38 23be 9b53 1ebe 3f57 6abd d585 6a3d
000002b0: 6289 42be eea4 cabd 212d 92be 72ff 51bd
000002c0: 3abd 2fbe cb1b 9fbe 743c 28bd 6ae6 01be
000002d0: 8e12 82bd 9b25 633e effe bbbe 625a a839
000002e0: 926d 833b 6ec8 babd 8145 babe 4829 1cbe
000002f0: be3f 67be c79f 2bbd 50e8 eebd f145 10be
00000300: 5db1 46bd 0311 89be b5d0 c2bd 2364 c43c
00000310: b5c7 003a 49ab aebe 0298 6fba 43b9 c3be
00000320: 6f6b 8f3e de61 56be 67d3 34be dd3a be3d
00000330: 1715 01be 12d7 28be ce3b cc3d 23ee b93d
00000340: 2e36 aebd f0e1 a13d fc4e 2bbe 19a1 a5be
00000350: 0134 c2bd e93a 0ebe 5c30 83be 9b0e e0bd
00000360: bcfe 4ebe 55bc b4be 2e86 04bf cbdc 9c3e
00000370: 61b1 143d 1c1b 55be e8f1 f6bc 78ef 1cbe
00000380: 3f5c 99bd 1510 bfbd 2a48 753c b5f9 c7bc
00000390: 74f1 18be f740 bdbd 6331 2b3c ce7d 31bd
000003a0: 6820 abbd 2765 78bd 0aa2 4cbe 3fd2 14be
000003b0: 55d5 a8be 95b4 2fbe 51e2 7bbe b717 96be
000003c0: 3fc6 9fbe f352 18be c254 aabe f4fa 72be
000003d0: ffac 913d b855 89be 0f43 82be be40 c3be
000003e0: ce20 a13e dbb0 03bf 1292 18be ff4f 10bf
000003f0: 6b2b d23e 25df ca3e a416 a8be f09b 1bbf
-0.13363327 0.061983615 -0.04122128 0.2065254 0.097813405 0.21672156 0.15055786 -0.004232029
0.15839805 0.019841194 -0.024604931 0.01555771 0.01924733 0.10448559 0.046436377 0.028570307
-0.024208164 0.14937188 -0.13507338 -0.03713715 0.15421832 0.008230895 -0.018863017 0.11740199
-0.027573522 -0.039275102 0.057356015 -0.11901273 0.1932922 -0.13067648 0.20995048 0.04787475
-0.2775744 0.478926 0.25762287 -0.15324222 -0.007856498 0.08491898 0.22452325 0.12475544
0.035131697 0.029040065 0.08171206 0.028089333 0.008797627 0.24671122 0.033218242 -0.016363464
-0.038111348 0.13818508 -0.054885883 0.027345788 0.1471072 -0.119458444 0.30945268 0.14502423
0.015576519 -0.1608037 0.051840868 0.034314293 0.020370336 0.1340024 -0.13774857 -0.008732338
0.01023907 0.03026734 0.050592463 -0.024811808 -0.083171934 0.01355303 -0.10899533 0.14395252
0.020842308 0.2147527 0.16230111 -0.015397857 -0.033989247 -0.0039394987 -0.34430656 -0.09029277
0.12333679 0.47308505 0.036614593 -0.045511704 0.114500254 -0.036366023 0.05217602 0.08418975
-0.08025364 -0.13073821 0.18503901 -0.082768634 0.0515559 0.17037775 -0.0150307305 0.07076215
0.2160982 0.06754667 0.037558503 -0.033237558 -0.012426625 0.12469922 0.04611168 -0.07326644
0.099476725 0.125287 0.01703414 0.22712396 0.09356762 0.11440207 0.08930166 0.05143056
-0.08637035 -0.06401722 0.2037463 0.21354333 0.17885964 -0.015858753 0.08061658 0.027302809
0.032775432 0.058594305 -0.005491317 0.057411756 -0.055439807 0.018393746 0.16376032 -0.06527169
0.12309187 -0.03814476 -0.27073646 -0.19597264 -0.267002 0.24277173 -0.19696575 -0.2596532
-0.2456641 0.13187772 -0.2479504 -0.076972105 0.1844275 -0.123042084 -0.34494975 -0.24527888
0.0636595 -0.25918767 -0.27645996 -0.026078917 -0.052390035 -0.24202928 -0.17446057 -0.11878679
-0.12334107 -0.30830815 -0.20835748 -0.042565223 -0.15578243 -0.076461315 -0.41006878 -0.17051388
-0.10271732 0.13519092 -0.16127832 -0.06423941 0.031340085 -0.29479992 -0.17989387 -0.106721975
-0.15939707 -0.1546158 -0.05721211 0.05725654 -0.1899772 -0.09894739 -0.28550056 -0.051269002
-0.17162028 -0.31075892 -0.041073278 -0.12685552 -0.06351195 0.22182314 -0.36717936 0.00032110797
0.0040108645 -0.0912026 -0.36381152 -0.15250123 -0.2258291 -0.041900422 -0.11665404 -0.1408918
-0.04850899 -0.2677079 -0.09512464 0.02397353 0.0004912571 -0.34115055 -0.00091397774 -0.3822728
0.28011653 -0.20935771 -0.17658769 0.09288571 -0.12605701 -0.16488293 0.09972344 0.09078624
-0.08506428 0.07904422 -0.16729349 -0.3234947 -0.09482575 -0.1388966 -0.25622833 -0.10940286
-0.20214361 -0.35299936 -0.5176724 0.30637202 0.036301974 -0.20811123 -0.030144647 -0.15325725
-0.07488298 -0.09329239 0.014970819 -0.024411062 -0.14935857 -0.09240907 0.010448786 -0.043332867
-0.083557904 -0.06064334 -0.19983688 -0.14533328 -0.3297526 -0.1715873 -0.24598052 -0.29314968
-0.31205937 -0.14875393 -0.3326779 -0.23728544 0.071130745 -0.2682321 -0.25441787 -0.38135332
0.3147034 -0.51441735 -0.14899471 -0.56372064 0.4104875 0.3962337 -0.32829773 -0.60784817

priority_gate.weight f4 [1, 124]
00000000: dd84 e73e b389 b93e 28bc 673e 1477 dbbd
00000010: e809 fe3e 750b 82be f5da 0b3f 61b7 dcbd
00000020: 8642 e2be afb2 15be bdd5 8b3e 8469 ba3d
00000030: 23a9 943e b64b 2cbc 79d9 b73e 9947 0abe
00000040: d468 2fbe 5a14 cc3d 483a b43d 81af 2d3f
00000050: d704 7abd 86d6 7a3d 31ea 313f 08e6 a43e
00000060: 8173 0b3d 9e87 863e 4d81 34be 3fae 21be
00000070: 54c4 e13e 9b18 94bb 490d 29bf af12 0a3b
00000080: c4e2 6c3e 2280 92be 8fb3 d3bc 23c2 80be
00000090: 9857 56be beb6 963c 8b7d dcbe ac1f 273f
000000a0: 98dd ac3d ce37 e93e 2610 6bbe 4718 babe
000000b0: 833e 0cbe 748a 5d3e 700f b73d b7e5 fe3e
000000c0: 1847 d73d 69d8 2c3e bf83 c3bc 6616 123e
000000d0: cfd7 e4bc 22a6 853e 58c2 f53e 3f36 b93e
000000e0: 395d c53e 532e 0a3f 4298 09be b57f 2bbe
000000f0: 78d4 8bbe cf4a 08bf 35b5 bcbd 8d1e 0c3c
00000100: 41c5 8c3e 811c a4bd 0ddb 22bc 7b1f 30bf
00000110: aa46 21be 569a 63be e571 d5be c2cd 2cbe
00000120: 1b04 223f bfdf bdbe 5ee3 c1bd f596 53be
00000130: 8393 573f 15dd ea3e c1a8 963e 83dd 863d
00000140: f215 0bbd a5a5 e73e 9bc1 bf3e 0e9a 483e
00000150: 4d77 4b3e c26a a33e 6896 1ebf 8940 613b
00000160: f06f da3e 48d5 13be d25a 043f 43df 093d
00000170: abde 1d3f 70e1 123f 7164 4fbe 916d 213e
00000180: 1e31 0dbe 86eb 193f 9166 abbe 2fe2 0d3e
00000190: 7ff2 37be 579b b83e 35c9 b7be 64c9 c83d
000001a0: f4c6 d03e 7915 173f b971 8e3e 67a6 ca3e
000001b0: 8862 e93e 7a14 cfbd ab67 32bb 5de6 89be
000001c0: 23a2 af3e 19e1 a6bb f40b 69bd f02c 70bc
000001d0: 495a 5f3e 5e63 b4bd 2928 e2be e56d 96bd
000001e0: b469 0c3f 8701 cbbe 3047 133f f9c7 bc3d
0.45218554 0.3623787 0.2263037 -0.10716072 0.49616933 -0.25399366 0.54630977 -0.10777164
-0.44191378 -0.14618944 0.27311507 0.09102157 0.2903529 -0.010516098 0.35908106 -0.13503875
-0.17129833 0.09964819 0.08800179 0.6784592 -0.061039772 0.06123974 0.6949797 0.3220675
0.0340457 0.26275343 -0.1762745 -0.15789126 0.440951 -0.0045195348 -0.66035897 0.0021068265
0.23133379 -0.28613383 -0.025842456 -0.25148115 -0.20931852 0.018397685 -0.43064532 0.652827
0.08440703 0.45550388 -0.22955379 -0.36346647 -0.13695721 0.21634847 0.08938491 0.49784634
0.10511607 0.16879429 -0.023866532 0.14266357 -0.027934937 0.26103312 0.47999835 0.361742
0.38547686 0.53976935 -0.13436988 -0.16747935 -0.27310538 -0.5323915 -0.0921425 0.008552206
0.27494243 -0.08013249 -0.009939921 -0.68798035 -0.15749612 -0.22226843 -0.41688457 -0.16875365
0.63287514 -0.37084767 -0.09467195 -0.20663054 0.8420946 0.45871797 0.29425624 0.06585219
-0.033956476 0.45243564 0.37452397 0.19590017 0.19869728 0.31917387 -0.6194825 0.0034370741
0.42663527 -0.14436829 0.5170108 0.033660185 0.6166789 0.5737524 -0.20253159 0.15764453
-0.13788268 0.60125005 -0.3347669 0.13855813 -0.17963599 0.36056015 -0.35895696 0.09804037
0.4077679 0.5901714 0.27821139 0.3958008 0.45582986 -0.101113275 -0.0027222435 -0.26933566
0.34303388 -0.0050927517 -0.056896165 -0.014659151 0.21811785 -0.08808015 -0.44171265 -0.073451795
0.5484879 -0.39649603 0.575305 0.09217829

memory_writer.weight f4 [124, 124]
00000000: 176d d9bd 8bbc 1ebd ea10 563d beff 14bd
00000010: 6476 ae3d 8a0c 7bbd f182 833d b902 a33c
00000020: 03cd cf3d e8f5 b73d 8c2d d33c 3e43 d93d
00000030: 9a09 6c3d a762 64bd fed2 473d 451c 10be
00000040: a297 713c 9259 e3bd bc05 5ebd 6afd 38be
00000050: 5113 9e3d 9718 4dbd a0b1 8dbd 9d94 dbbd
00000060: 8af4 54bd 6a82 a63d 3959 763d a400 1a3d
00000070: aac9 e1bb 28e9 023e d507 54bb a98b 833d
00000080: 3ab8 1b3e b73b b0bd 7607 6f3c 0ff2 b83d
00000090: c8ab 393d b9f8 c5bd ae71 97bc 2c16 0d3d
000000a0: c73e cebd 7d8a 943b 27e8 16bd 2ad8 09be
000000b0: 5ca5 9fbd 9188 453d ae2e adbc 0416 32bd
000000c0: 9645 393e 5e9e d9bd 1204 39be 5f38 923b
000000d0: 02ce 0e3d b776 9abd 1f71 14bc 2572 9c3d
000000e0: 8aa9 2cbd 9822 463d e64c f2bc 4a84 4f3e
000000f0: 5721 8fbd 238a e3bd 4f4c e53c 7110 9a3d
00000100: 5cc7 e2bd a9ff be3b 50b9 66bc 7ec7 6cbe
00000110: 87e3 2ebd 38b9 e3bc aeda ebbd 913d 1d3d
00000120: 10b0 edbc 0349 5bbe 7b28 1c3e 7f6f 49be
00000130: 97fb 953d 3f0e 343e fff1 0fbe 71ed 9dbd
00000140: b385 eebd 4d4d d53c 5248 363c 2e4d ae3c
00000150: beb1 02bc d14a 023c a04d 623b f516 a03d
00000160: 8634 403d 5a13 e7bc c0ec df3c e335 c0bd
00000170: ca37 08be 7b2b 8bbc 6e36 1dbe 0c6a 213d
00000180: d317 553a c851 98bd c22e 3c3e 33ba bbbb
00000190: 35e3 3a3d 7af1 fdbd cd82 ca3d 426a 083c
000001a0: e2bd 713c 7690 e33d 1ffa 853d 5a6b 493d
000001b0: dd5f 2f3d a7e5 a9bd 3bd5 4e3e 0fde 263e
000001c0: bda2 0bbd 2885 fcbd b6e1 91bd 855d 103d
000001d0: eeef f7bb fb67 d83d 9e88 b4bd d1ab a93d
000001e0: 9bb2 d13c 21e6 b83d de18 adbc c465 8dbd
000001f0: e30b 1cbd f5ac e73d 6422 b33c 0256 9f3d
00000200: 93a3 8ebd 0fd4 af3c 194b 2a3d 68ff 233d
00000210: c712 8dbd bf6c 083e b1c9 673d 1ff8 953c
00000220: f961 9bbd 8e16 f2bc d64d 183d 6ff7 f4bc
00000230: 303d bbbb c370 883c 41df 68bd 95cd a0bc
00000240: 5de6 aabd 4459 993d 6255 f63c 89d2 25bd
00000250: eae9 943c 953c b53c 0e6d ad3d dff1 b6bb
00000260: e022 913d 9742 cc3d d404 9abd 9f4c 2a3d
00000270: f3b2 1939 efe6 adbd 8cf9 643d 083d 3b3e
00000280: e1e7 893d a12f 93bd 48bd 873d b3c1 f8bd
00000290: 3a5d de3d 0650 aa3d 7e00 0ebe 38ee b3bd
000002a0: 6289 8e3d 0abe 3ebd 6818 cb3b 2644 153d
000002b0: bd1f c53d 8791 77bc 6683 8f3c 9c51 f73c
000002c0: 4a9e ab3d 7e81 b5bc aa55 293d b264 ca3a
000002d0: 99c0 a5bd e7c0 083e b247 13bc e4d0 4e3d
000002e0: a3e3 9e3d 653e 9cbd 4e6a 633d 8063 593d
000002f0: bf5c 77bd 3d69 9ebc db29 c93d 18a9 6d3b
00000300: 20e5 2d3c 6088 a93c 4f4b c8bc bf13 55bc
00000310: 80cb 40bd 202d 90bc 4c70 48bd 2df6 f63d
00000320: 6c77 e13c 782b 76bd 61af 5dbd 0738 8e3d
00000330: 04c2 c3bd eecf 193d 5adb 7f3d 9ee4 c13d
00000340: 3138 243d 2d15 c2bc 6cb8 57bb 37f9 bf3d
00000350: f121 f8bc a3f0 6f3d 2bb5 bbbd 6303 ef3b
00000360: 4711 3bbd 64bb bcbd 4c41 3a3e bf0c d2bc
00000370: 2797 84bc 3c0d edbd be92 e03d dc75 f2bd
00000380: d316 1d3d 8eb5 8b3c ac8f 393c b753 c03b
00000390: ed5c adbd c77d 5d3b 4623 65bd 3874 bfbc
000003a0: ec65 16bd 7fd9 63bc 7a96 96bd b30c 62bc
000003b0: 88f0 81bc 4e7b 2b3c 81be 123e 8f0d c83d
000003c0: 3b57 393d c12d abbd 9f29 403d f03b b2bd
000003d0: b9c6 77bd 25de b43d f92c 5f3c 9a47 363d
000003e0: d206 0f3d 660c 96bd 3917 f7bb c1f9 6d3d
000003f0: aead 993c 2d94 173d 61bf 3cbd b37c be3c
-0.1061651 -0.038754027 0.052262224 -0.036376707 0.08518675 -0.061291255 0.064214595 0.01989876
0.10146525 0.0898245 0.025778554 0.106085286 0.057626344 -0.055758145 0.048785202 -0.14073284
0.014745625 -0.111010686 -0.054204687 -0.1806542 0.07718528 -0.05007228 -0.06918645 -0.10721705
-0.051991023 0.08130343 0.060143683 0.037598267 -0.0068904953 0.12784255 -0.00323533 0.064231224
0.15206996 -0.0860514 0.014589181 0.09030544 0.04532984 -0.09666581 -0.018486824 0.034444973
-0.100705676 0.0045331107 -0.03684249 -0.13461366 -0.07795212 0.048225943 -0.021140423 -0.043478027
0.18092951 -0.10625909 -0.18067959 0.0044622864 0.034864433 -0.07542174 -0.009060173 0.07638959
-0.042153873 0.048372835 -0.029577684 0.20265308 -0.06988781 -0.11110332 0.027990488 0.07522667
-0.11073181 0.005828817 -0.014082268 -0.23122975 -0.042697456 -0.02779828 -0.11516319 0.038388792
-0.029014617 -0.2141457 0.15249817 -0.19671439 0.073233776 0.1758356 -0.14057158 -0.07711304
-0.11646595 0.026037836 0.011125641 0.021277037 -0.007976947 0.007952408 0.0034531131 0.07816879
0.04692509 -0.02820747 0.02733457 -0.09385278 -0.13302532 -0.016988507 -0.15352795 0.039407775
0.0008128855 -0.074374735 0.18377212 -0.005728984 0.045626838 -0.123995736 0.098882295 0.008326115
0.014754744 0.11111538 0.065418474 0.049174644 0.04281603 -0.08295756 0.20198528 0.16295646
-0.034090746 -0.12330085 -0.07123129 0.035245437 -0.0075664436 0.10566708 -0.0881512 0.082847245
0.025597861 0.090282686 -0.021130022 -0.06904176 -0.038097274 0.11312286 0.021866985 0.077800766
-0.06964793 0.021463422 0.041575525 0.040038496 -0.06888347 0.13322733 0.056588832 0.01830679
-0.07587046 -0.02955177 0.037183605 -0.029903142 -0.005714081 0.016655331 -0.056853537 -0.01962928
-0.083447196 0.07487729 0.03007001 -0.040483985 0.018177945 0.022123614 0.08468066 -0.0055830325
0.0708673 0.099736385 -0.07520452 0.041576978 0.00014657881 -0.08491313 0.05590205 0.18285
0.067336805 -0.07186819 0.066278994 -0.1214632 0.10857625 0.083160445 -0.13867375 -0.08785671
0.069597974 -0.046567954 0.006197978 0.036441945 0.09625194 -0.01511038 0.01751871 0.030190282
0.083798006 -0.022156473 0.04134146 0.0015441386 -0.08093376 0.13354836 -0.008989261 0.050492182
0.07758262 -0.07629088 0.055521302 0.053073406 -0.060391184 -0.01933729 0.098224364 0.0036264118
0.01061371 0.020694911 -0.024449972 -0.013005196 -0.047069073 -0.017599642 -0.04893522 0.12058673
0.027522765 -0.06010005 -0.054122332 0.0694428 -0.0955849 0.037551813 0.06246505 0.094674334
0.04009265 -0.023691738 -0.003291632 0.09373706 -0.030289622 0.0585791 -0.091654144 0.007294105
-0.045670774 -0.092154294 0.18188971 -0.025640843 -0.016185356 -0.1157479 0.10965489 -0.11838886
0.038351845 0.017054345 0.011325758 0.0058693546 -0.0846499 0.0033796893 -0.055941842 -0.023370847
-0.036718294 -0.013906836 -0.0735292 -0.013796973 -0.015861765 0.01046641 0.14330484 0.09768211
0.045249205 -0.08358336 0.046914693 -0.087028384 -0.06049225 0.08831433 0.013621562 0.04450188
0.034918614 -0.073265836 -0.00754061 0.058099512 0.018759575 0.037006546 -0.04608095 0.02325282

memory_writer.bias f4 [124]
00000000: 300a 85bd 8c11 ba3d 1981 143e 616a 2e3e
00000010: 42bb a2be b796 473e b1db 103e 7717 1e3e
00000020: 836a 44be 7a90 92be 9ace 093d 28ec 943e
00000030: 82e9 45bc c8f4 1ebd 7d75 053e 8de6 d53d
00000040: 1ee0 44bd c98d c63d d493 5d3e 3457 ff3d
00000050: f414 8b3e 6b15 96bd 6f03 8ebe 245a 203e
00000060: 415b 1e3e 86df f5bd c1ef d9bd 4401 96bd
00000070: 2773 6a3e d4af b9bd 7773 30bd 5980 593b
00000080: c8ef a2bc 0e44 be3d c1ad 08be e08b 21bc
00000090: e204 bebe 5ed1 30be e31c 54be 7083 0abe
000000a0: 24e8 89bd c053 33be 8eae bcbd 81af 853c
000000b0: 29c7 683e 69c7 34be c59c 783e cf6e 293d
000000c0: fb0d f43d 13f1 5cbd f957 93bd 0f8c 5abe
000000d0: fe2b 9f3d 9456 37be a962 403e 1735 cfbc
000000e0: b4ae 983d b010 c6be d2f4 3dbe 4507 7e3d
000000f0: 0a55 663c df1b f8bd 21e6 0dbe 83da cd3d
00000100: f992 c63d 15de ccbd f77a cebd 1dca 12be
00000110: 255d 57bd c5b4 073e 012f ac39 4c0f c7bd
00000120: fd2c 1c3e e9fb 6dbd c1a9 003e 06a3 5d3e
00000130: bd35 1b3e 1852 583e e63f cbbc bb34 32bd
00000140: 2113 3c3e 31d1 c93c 9d55 683e afe8 1dbe
00000150: 997c 2b3e 4e09 e73d 2d97 373d e041 383c
00000160: aae6 5ebd f054 973e c64c ea3c e215 1b3e
00000170: 7d24 2e3d 6709 99bc f352 8cbc 9f48 bc3e
00000180: cd22 15be 5ff8 bdbd 4ad3 063e acaf dcbd
00000190: 6c5c 863d b16b cc3c 090a 3a3e d130 f2bd
000001a0: 0ba3 21be 978f 833d 8896 383d 4c88 86be
000001b0: 2fc9 f4bc 9aaf dbbd 17c5 80bd 3e8e 97bc
000001c0: 92b9 96bd 1663 60be 79e0 88be d6a3 90be
000001d0: e939 863e 2224 32be 9fb7 9bbd 7e0f f8bd
000001e0: 26e7 3f3e e679 e63d 9f4f 0d3d 96b9 593e
-0.06496084 0.09085378 0.14502372 0.17032768 -0.3178349 0.19491087 0.14146306 0.15438639
-0.19181256 -0.28625852 0.033644296 0.29086423 -0.012079598 -0.03880766 0.130331 0.10444365
-0.048065297 0.09695012 0.21638423 0.124678046 0.27164423 -0.07328304 -0.27736995 0.15659386
0.15464498 -0.12005524 -0.106414326 -0.0732446 0.2289549 -0.0906674 -0.043078866 0.0033188073
-0.019889727 0.09290324 -0.13347532 -0.009860009 -0.371131 -0.17267367 -0.20714144 -0.13526702
-0.067337304 -0.17512417 -0.09212981 0.016319038 0.22732224 -0.17654194 0.24278553 0.04136544
0.11916729 -0.053940844 -0.07194514 -0.2134249 0.07772063 -0.1790412 0.18787636 -0.02529387
0.07455197 -0.38684607 -0.18550423 0.06201865 0.014058361 -0.12114691 -0.13857318 0.100514434
0.096960016 -0.10003296 -0.100820474 -0.14334913 -0.052579064 0.13252552 0.00032841417 -0.097197145
0.15251537 -0.05810157 0.12564756 0.2164422 0.15157218 0.21125066 -0.024810743 -0.04350732
0.18366672 0.024635883 0.22688909 -0.15420793 0.16746749 0.112810716 0.044821907 0.011246175
-0.054419197 0.2955699 0.028601062 0.15145066 0.042515267 -0.018681241 -0.017129397 0.36774155
-0.14564057 -0.09275889 0.13166538 -0.10775694 0.06560597 0.024953695 0.1816789 -0.11825717
-0.15784852 0.06423872 0.045065433 -0.2627586 -0.029881088 -0.10726853 -0.06287592 -0.018500444
-0.073596135 -0.21912798 -0.2673376 -0.28249997 0.26216057 -0.17396596 -0.07603382 -0.1211233
0.1874052 0.11253719 0.03449976 0.21262202
