tinystoriesgru-0.2M-int8.pt (torch, 277107 bytes, 18 tensors)

tril i1 [256, 256]
00000000: 7f00 0000 0000 0000 0000 0000 0000 0000
00000010: 0000 0000 0000 0000 0000 0000 0000 0000
00000020: 0000 0000 0000 0000 0000 0000 0000 0000
00000030: 0000 0000 0000 0000 0000 0000 0000 0000
00000040: 0000 0000 0000 0000 0000 0000 0000 0000
00000050: 0000 0000 0000 0000 0000 0000 0000 0000
00000060: 0000 0000 0000 0000 0000 0000 0000 0000
00000070: 0000 0000 0000 0000 0000 0000 0000 0000
00000080: 0000 0000 0000 0000 0000 0000 0000 0000
00000090: 0000 0000 0000 0000 0000 0000 0000 0000
000000a0: 0000 0000 0000 0000 0000 0000 0000 0000
000000b0: 0000 0000 0000 0000 0000 0000 0000 0000
000000c0: 0000 0000 0000 0000 0000 0000 0000 0000
000000d0: 0000 0000 0000 0000 0000 0000 0000 0000
000000e0: 0000 0000 0000 0000 0000 0000 0000 0000
000000f0: 0000 0000 0000 0000 0000 0000 0000 0000
127 0 0 0 0 0 0 0
0 0 0 0 0 0 0 0
0 0 0 0 0 0 0 0
0 0 0 0 0 0 0 0
0 0 0 0 0 0 0 0
0 0 0 0 0 0 0 0
0 0 0 0 0 0 0 0
0 0 0 0 0 0 0 0
0 0 0 0 0 0 0 0
0 0 0 0 0 0 0 0
0 0 0 0 0 0 0 0
0 0 0 0 0 0 0 0
0 0 0 0 0 0 0 0
0 0 0 0 0 0 0 0
0 0 0 0 0 0 0 0
0 0 0 0 0 0 0 0
0 0 0 0 0 0 0 0
0 0 0 0 0 0 0 0
0 0 0 0 0 0 0 0
0 0 0 0 0 0 0 0
0 0 0 0 0 0 0 0
0 0 0 0 0 0 0 0
0 0 0 0 0 0 0 0
0 0 0 0 0 0 0 0
0 0 0 0 0 0 0 0
0 0 0 0 0 0 0 0
0 0 0 0 0 0 0 0
0 0 0 0 0 0 0 0
0 0 0 0 0 0 0 0
0 0 0 0 0 0 0 0
0 0 0 0 0 0 0 0
0 0 0 0 0 0 0 0

token_emb.weight i1 [98, 96]
00000000: 210e 20fe b00b 061d f301 ec15 29ee 28df
00000010: 0b1c 18fe 09e4 13d1 0416 ff1e f335 efe3
00000020: f10d f1f6 5827 faef e600 4bfe 132d 19d2
00000030: e500 b5fd c10b ceea 00fc ffe9 31cf 0803
00000040: f6f6 edf6 f5e1 04cb be12 e62f d82e f2db
00000050: 11e0 0006 dbda 12d4 1e12 ef3e 1e18 df34
00000060: 2542 1607 ea1a ddff f3fc 04ec 13e8 440f
00000070: 10ff 0d1c 0c10 fd1f 20db 1a17 1f00 fb0c
00000080: 1842 1ae3 26ee 1536 f10a 0642 ea01 ff1b
00000090: eed7 eaed eaed 0506 1efd 09f9 fae5 f5e8
000000a0: f2de d304 cffe d905 ff11 370d e5e2 dc3d
000000b0: f719 dd13 0915 e8fd f3fe ed2c 431c f6f8
000000c0: e0fa f2dc f629 d5fe 0b28 d0e5 f251 c420
000000d0: faf5 aefd e74a f8e7 3622 0f0e fc0a 00bd
000000e0: ef18 2320 4438 e6f1 083c 4421 de0b f501
000000f0: 0711 c655 f70d d165 e1cc cd20 f03c 58f6
33 14 32 -2 -80 11 6 29
-13 1 -20 21 41 -18 40 -33
11 28 24 -2 9 -28 19 -47
4 22 -1 30 -13 53 -17 -29
-15 13 -15 -10 88 39 -6 -17
-26 0 75 -2 19 45 25 -46
-27 0 -75 -3 -63 11 -50 -22
0 -4 -1 -23 49 -49 8 3
-10 -10 -19 -10 -11 -31 4 -53
-66 18 -26 47 -40 46 -14 -37
17 -32 0 6 -37 -38 18 -44
30 18 -17 62 30 24 -33 52
37 66 22 7 -22 26 -35 -1
-13 -4 4 -20 19 -24 68 15
16 -1 13 28 12 16 -3 31
32 -37 26 23 31 0 -5 12
24 66 26 -29 38 -18 21 54
-15 10 6 66 -22 1 -1 27
-18 -41 -22 -19 -22 -19 5 6
30 -3 9 -7 -6 -27 -11 -24
-14 -34 -45 4 -49 -2 -39 5
-1 17 55 13 -27 -30 -36 61
-9 25 -35 19 9 21 -24 -3
-13 -2 -19 44 67 28 -10 -8
-32 -6 -14 -36 -10 41 -43 -2
11 40 -48 -27 -14 81 -60 32
-6 -11 -82 -3 -25 74 -8 -25
54 34 15 14 -4 10 0 -67
-17 24 35 32 68 56 -26 -15
8 60 68 33 -34 11 -11 1
7 17 -58 85 -9 13 -47 101
-31 -52 -51 32 -16 60 88 -10

pos_emb.weight i1 [256, 96]
00000000: f3f8 062b fad4 f0fd 2506 23e8 fb11 ca0d
00000010: ffff 1427 f712 0fed e4fe 22ef efbb 06c2
00000020: ee36 e216 32fc fbfa 1017 3bfd 11dc 08bd
00000030: 050b dec0 1914 f817 e2ff 20fc 1308 fe22
00000040: ecca 1f13 fc30 3d34 f2d1 db1b 4cad fe34
00000050: f4d6 160a 27f7 e02b d8fb ecee ba0d f8ef
00000060: e5c6 db12 d71f 0a24 231a 0ee8 f0bd 0514
00000070: 0af3 0b1a 1a07 f924 e123 ffef 2232 d715
00000080: f6e9 f3e5 bdf7 08e2 411c 1eea f7ef e708
00000090: f74a facd 2307 c21c fa11 1fed 16f3 fdef
000000a0: 0229 e058 ae43 1e1a 2721 d82d 024a f22e
000000b0: f814 d700 28ff 0602 fcf5 f01a c0bb 2919
000000c0: fed1 f9f3 0af7 f2eb f702 0a17 e9df daeb
000000d0: 17e5 0c1f 02e8 c516 f631 fdd3 0511 1733
000000e0: 00fd 02f0 df0e e30b 3602 2226 cdc4 f9e9
000000f0: 1d1e e5f9 2ff7 f516 ad0b 420c fe18 1733
-13 -8 6 43 -6 -44 -16 -3
37 6 35 -24 -5 17 -54 13
-1 -1 20 39 -9 18 15 -19
-28 -2 34 -17 -17 -69 6 -62
-18 54 -30 22 50 -4 -5 -6
16 23 59 -3 17 -36 8 -67
5 11 -34 -64 25 20 -8 23
-30 -1 32 -4 19 8 -2 34
-20 -54 31 19 -4 48 61 52
-14 -47 -37 27 76 -83 -2 52
-12 -42 22 10 39 -9 -32 43
-40 -5 -20 -18 -70 13 -8 -17
-27 -58 -37 18 -41 31 10 36
35 26 14 -24 -16 -67 5 20
10 -13 11 26 26 7 -7 36
-31 35 -1 -17 34 50 -41 21
-10 -23 -13 -27 -67 -9 8 -30
65 28 30 -22 -9 -17 -25 8
-9 74 -6 -51 35 7 -62 28
-6 17 31 -19 22 -13 -3 -17
2 41 -32 88 -82 67 30 26
39 33 -40 45 2 74 -14 46
-8 20 -41 0 40 -1 6 2
-4 -11 -16 26 -64 -69 41 25
-2 -47 -7 -13 10 -9 -14 -21
-9 2 10 23 -23 -33 -38 -21
23 -27 12 31 2 -24 -59 22
-10 49 -3 -45 5 17 23 51
0 -3 2 -16 -33 14 -29 11
54 2 34 38 -51 -60 -7 -23
29 30 -27 -7 47 -9 -11 22
-83 11 66 12 -2 24 23 51

attn.in_proj_weight i1 [288, 96]
00000000: 11fc 0209 010a e408 fde4 0b10 fcff 170f
00000010: ea02 1517 08fa 29f6 07f5 010d 0404 0901
00000020: 10ee ee06 18fa f615 07ec ff15 0819 0bec
00000030: eced f8eb 05fa f7fd f5ee dc09 0909 1201
00000040: fb0d fbeb 0a01 d6d9 e807 0e03 f2f2 16f0
00000050: 200f 0711 f107 f9e9 f113 e6ef 191b dcfc
00000060: c703 ed26 19e6 eee5 1800 15fb e907 fb0c
00000070: d4f1 0116 e108 fb21 0212 f9ec e2dd 0d27
00000080: 18fd 0802 ef1a 0213 f40e f7f6 f9ec e5fb
00000090: 150c 21da 0de2 0c04 d019 ef0e 171d ee0d
000000a0: 0118 fdee 0921 e912 ff09 01e0 f9d6 1ef2
000000b0: ede8 ea29 1210 0cf4 fc0f e10c faff 1c11
000000c0: 2ffe fd03 0605 fce3 feca 1519 1807 01f2
000000d0: f21d 10cb 0208 0d1b 15ef ff02 f2e5 f403
000000e0: 05ee eef3 10f5 130a e613 ede6 06ed fc01
000000f0: 01d5 0927 f4ea 07fd 00fd d5df f3ec fe02
17 -4 2 9 1 10 -28 8
-3 -28 11 16 -4 -1 23 15
-22 2 21 23 8 -6 41 -10
7 -11 1 13 4 4 9 1
16 -18 -18 6 24 -6 -10 21
7 -20 -1 21 8 25 11 -20
-20 -19 -8 -21 5 -6 -9 -3
-11 -18 -36 9 9 9 18 1
-5 13 -5 -21 10 1 -42 -39
-24 7 14 3 -14 -14 22 -16
32 15 7 17 -15 7 -7 -23
-15 19 -26 -17 25 27 -36 -4
-57 3 -19 38 25 -26 -18 -27
24 0 21 -5 -23 7 -5 12
-44 -15 1 22 -31 8 -5 33
2 18 -7 -20 -30 -35 13 39
24 -3 8 2 -17 26 2 19
-12 14 -9 -10 -7 -20 -27 -5
21 12 33 -38 13 -30 12 4
-48 25 -17 14 23 29 -18 13
1 24 -3 -18 9 33 -23 18
-1 9 1 -32 -7 -42 30 -14
-19 -24 -22 41 18 16 12 -12
-4 15 -31 12 -6 -1 28 17
47 -2 -3 3 6 5 -4 -29
-2 -54 21 25 24 7 1 -14
-14 29 16 -53 2 8 13 27
21 -17 -1 2 -14 -27 -12 3
5 -18 -18 -13 16 -11 19 10
-26 19 -19 -26 6 -19 -4 1
1 -43 9 39 -12 -22 7 -3
0 -3 -43 -33 -13 -20 -2 2

attn.in_proj_bias i1 [288]
00000000: 4ddb 23f9 40f7 81d0 8849 27a4 1e2e de14
00000010: e338 ab69 06bf cacd 3c9a 3909 3599 cab0
00000020: d2cf 3e19 cff6 16b2 f666 390a 5c32 ade0
00000030: efce 2020 e5a3 27e7 03d0 f654 1ac7 2106
00000040: a834 47ff 1eda 35a6 1279 f6ee 46a0 d520
00000050: 13d7 e08a acd2 d923 f412 b6dd 2071 0857
00000060: 0000 0000 0000 0000 0000 0000 0000 0000
00000070: 0000 0000 0000 0000 0000 0000 0000 0000
00000080: 0000 0000 0000 0000 0000 0000 0000 0000
00000090: 0000 0000 0000 0000 0000 0000 0000 0000
000000a0: 0000 0000 0000 0000 0000 0000 0000 0000
000000b0: 0000 0000 0000 0000 0000 0000 0000 0000
000000c0: fdf4 07ff f7fa 06fe 0711 00fd f707 f506
000000d0: fe00 f9fe f90e 0811 00ed f6e7 f9fb 080d
000000e0: f80b f30c 140c fff9 f015 fd05 0915 0102
000000f0: f710 12fe 0f10 0b0c e6f4 0f13 00f8 faf6
77 -37 35 -7 64 -9 -127 -48
-120 73 39 -92 30 46 -34 20
-29 56 -85 105 6 -65 -54 -51
60 -102 57 9 53 -103 -54 -80
-46 -49 62 25 -49 -10 22 -78
-10 102 57 10 92 50 -83 -32
-17 -50 32 32 -27 -93 39 -25
3 -48 -10 84 26 -57 33 6
-88 52 71 -1 30 -38 53 -90
18 121 -10 -18 70 -96 -43 32
19 -41 -32 -118 -84 -46 -39 35
-12 18 -74 -35 32 113 8 87
0 0 0 0 0 0 0 0
0 0 0 0 0 0 0 0
0 0 0 0 0 0 0 0
0 0 0 0 0 0 0 0
0 0 0 0 0 0 0 0
0 0 0 0 0 0 0 0
0 0 0 0 0 0 0 0
0 0 0 0 0 0 0 0
0 0 0 0 0 0 0 0
0 0 0 0 0 0 0 0
0 0 0 0 0 0 0 0
0 0 0 0 0 0 0 0
-3 -12 7 -1 -9 -6 6 -2
7 17 0 -3 -9 7 -11 6
-2 0 -7 -2 -7 14 8 17
0 -19 -10 -25 -7 -5 8 13
-8 11 -13 12 20 12 -1 -7
-16 21 -3 5 9 21 1 2
-9 16 18 -2 15 16 11 12
-26 -12 15 19 0 -8 -6 -10

attn.out_proj.weight i1 [96, 96]
00000000: 17f0 d1fe 4212 30f9 dffc e7f3 151a 1e2d
00000010: feb8 f717 1aeb 0714 09ef 0ceb 3532 ed01
00000020: ef2a 430c 1b04 16ec 010f 01bc 02db 0d26
00000030: 2cc9 5e31 08f8 2a1b d211 3e1a f10e efe5
00000040: 371a 00fa ea03 fc03 1614 edee d12b fb08
00000050: ea14 e613 01f1 fcd2 e818 1b2d 4dd9 f4d6
00000060: d0c8 0cf3 f2cd dc2f e4da 3b0e 1427 09f3
00000070: 1bef 0109 3214 1e1e 12fc 3d1d 1bdb 081c
00000080: 03fb fbea 0d15 1dd3 e537 0e08 1b52 c1f6
00000090: 0acb 6c27 f72d 0946 cdf9 fded b0ff 0425
000000a0: 08e6 dd29 e0f7 c5e3 ea1d bb0a f3f6 f124
000000b0: e903 2206 13c9 1a45 26f9 f919 5526 04f8
000000c0: 2996 441b e00c f71c 0c1d 141d fe44 0fd0
000000d0: e61d f2e4 16d9 dcde fb37 f141 da56 2aee
000000e0: f9e5 23f1 e80c 2204 35f7 fdf9 c5cd f1f7
000000f0: e306 fae0 ef1d 0706 1d3a ee10 011f f53c
23 -16 -47 -2 66 18 48 -7
-33 -4 -25 -13 21 26 30 45
-2 -72 -9 23 26 -21 7 20
9 -17 12 -21 53 50 -19 1
-17 42 67 12 27 4 22 -20
1 15 1 -68 2 -37 13 38
44 -55 94 49 8 -8 42 27
-46 17 62 26 -15 14 -17 -27
55 26 0 -6 -22 3 -4 3
22 20 -19 -18 -47 43 -5 8
-22 20 -26 19 1 -15 -4 -46
-24 24 27 45 77 -39 -12 -42
-48 -56 12 -13 -14 -51 -36 47
-28 -38 59 14 20 39 9 -13
27 -17 1 9 50 20 30 30
18 -4 61 29 27 -37 8 28
3 -5 -5 -22 13 21 29 -45
-27 55 14 8 27 82 -63 -10
10 -53 108 39 -9 45 9 70
-51 -7 -3 -19 -80 -1 4 37
8 -26 -35 41 -32 -9 -59 -29
-22 29 -69 10 -13 -10 -15 36
-23 3 34 6 19 -55 26 69
38 -7 -7 25 85 38 4 -8
41 -106 68 27 -32 12 -9 28
12 29 20 29 -2 68 15 -48
-26 29 -14 -28 22 -39 -36 -34
-5 55 -15 65 -38 86 42 -18
-7 -27 35 -15 -24 12 34 4
53 -9 -3 -7 -59 -51 -15 -9
-29 6 -6 -32 -17 29 7 6
29 58 -18 16 1 31 -11 60

attn.out_proj.bias i1 [96]
00000000: 5ad3 ea0a b476 294b 9428 4440 1679 0cd9
00000010: d27f fad2 1231 6720 50b6 c7d9 feb7 4845
00000020: ccb7 dc4b 05ed 21e7 2319 c7d2 c5f3 ce27
00000030: 4345 42d2 f604 042d 3e13 0c19 1e18 d9e7
00000040: e0a9 2932 29bb f1db 3333 f3e7 43eb d942
00000050: ca0f b01b 2313 3929 0fb3 fbf7 2af0 adde
90 -45 -22 10 -76 118 41 75
-108 40 68 64 22 121 12 -39
-46 127 -6 -46 18 49 103 32
80 -74 -57 -39 -2 -73 72 69
-52 -73 -36 75 5 -19 33 -25
35 25 -57 -46 -59 -13 -50 39
67 69 66 -46 -10 4 4 45
62 19 12 25 30 24 -39 -25
-32 -87 41 50 41 -69 -15 -37
51 51 -13 -25 67 -21 -39 66
-54 15 -80 27 35 19 57 41
15 -77 -5 -9 42 -16 -83 -34

gru_cell.weight_ih i1 [288, 288]
00000000: fef2 f8fb 02f1 0cf5 e502 dd21 0600 f8ff
00000010: fbfc eefa 310d fa02 edf4 04fb 0bf9 0220
00000020: f4fc ec0b 0efe 0ee4 04e2 fef9 190f faff
00000030: 1dfb 0f19 ffdc e30f f81c 0d1e f901 ee01
00000040: 0add e607 2802 faf7 f1fc eddf 0af7 f103
00000050: 10f5 0214 ed0f eb12 de0b 0105 010d 0b14
00000060: 1113 e92e ed0f 0101 f6fc 1604 0805 e3db
00000070: fa10 2700 170e fbf1 1cf8 df0e 1b07 eb0f
00000080: f1f8 17ea 2dd4 c90a 21f3 f0e1 f00c fde3
00000090: 1406 eee2 1bf8 0ffa 1013 3bf6 f908 d310
000000a0: daf1 11ed faf1 efc9 e6fd 1007 ef2b e911
000000b0: fde8 0619 0a1a fffa 10ee e020 042b f2e9
000000c0: fc0a f5eb ebdf 0535 e4f3 c6bd 06dc 09eb
000000d0: 1cfb f4e6 eef6 f2f5 e8f9 fa0b 11fa 0923
000000e0: d4ee 18f9 e40f f7e0 0111 13f5 1517 140c
000000f0: daf4 fd09 d5dc dfe7 ecf4 f006 1603 12dd
-2 -14 -8 -5 2 -15 12 -11
-27 2 -35 33 6 0 -8 -1
-5 -4 -18 -6 49 13 -6 2
-19 -12 4 -5 11 -7 2 32
-12 -4 -20 11 14 -2 14 -28
4 -30 -2 -7 25 15 -6 -1
29 -5 15 25 -1 -36 -29 15
-8 28 13 30 -7 1 -18 1
10 -35 -26 7 40 2 -6 -9
-15 -4 -19 -33 10 -9 -15 3
16 -11 2 20 -19 15 -21 18
-34 11 1 5 1 13 11 20
17 19 -23 46 -19 15 1 1
-10 -4 22 4 8 5 -29 -37
-6 16 39 0 23 14 -5 -15
28 -8 -33 14 27 7 -21 15
-15 -8 23 -22 45 -44 -55 10
33 -13 -16 -31 -16 12 -3 -29
20 6 -18 -30 27 -8 15 -6
16 19 59 -10 -7 8 -45 16
-38 -15 17 -19 -6 -15 -17 -55
-26 -3 16 7 -17 43 -23 17
-3 -24 6 25 10 26 -1 -6
16 -18 -32 32 4 43 -14 -23
-4 10 -11 -21 -21 -33 5 53
-28 -13 -58 -67 6 -36 9 -21
28 -5 -12 -26 -18 -10 -14 -11
-24 -7 -6 11 17 -6 9 35
-44 -18 24 -7 -28 15 -9 -32
1 17 19 -11 21 23 20 12
-38 -12 -3 9 -43 -36 -33 -25
-20 -12 -16 6 22 3 18 -35

gru_cell.weight_hh i1 [288, 96]
00000000: f408 03dc e80e 3be7 1319 ea0b 21f8 ee2d
00000010: dce2 eb03 290d 22ed 19e3 290b fa16 ddf9
00000020: e9eb 420b 22fc 1a17 fc02 00ec 1700 f8d4
00000030: 1bee 1bf2 1800 e404 f0f5 cfe6 d01a 0bec
00000040: 0303 feee e02d e9f3 20fd f4f1 f3fe e5f8
00000050: 15ff 1a04 f408 ec39 1ded 1b01 fde7 4006
00000060: f6e4 2e1c ffed dada 0a05 f2f7 ece0 3bf8
00000070: faf8 1c04 da06 0700 3026 3a40 e833 c706
00000080: ef14 00f8 ed0b 0e27 16ed e7f8 ea30 1fd2
00000090: fa01 14ee 1f1a 34f6 11f8 02ed 3113 f3e5
000000a0: fff3 0106 d204 d81a dff0 ffeb e5f2 dcfb
000000b0: f50a 09ea fd1c 1ed4 1ff7 0bef d4df e007
000000c0: 35cc cee3 0bbf 023b 082c e8f5 0c00 f537
000000d0: 0619 0332 3818 4b12 19d3 0ffb 253a e328
000000e0: 04cd d90b 0cd5 db09 1f15 0730 dc2e e60e
000000f0: bf13 e2f3 dceb 2863 0318 f0f3 250d 07af
-12 8 3 -36 -24 14 59 -25
19 25 -22 11 33 -8 -18 45
-36 -30 -21 3 41 13 34 -19
25 -29 41 11 -6 22 -35 -7
-23 -21 66 11 34 -4 26 23
-4 2 0 -20 23 0 -8 -44
27 -18 27 -14 24 0 -28 4
-16 -11 -49 -26 -48 26 11 -20
3 3 -2 -18 -32 45 -23 -13
32 -3 -12 -15 -13 -2 -27 -8
21 -1 26 4 -12 8 -20 57
29 -19 27 1 -3 -25 64 6
-10 -28 46 28 -1 -19 -38 -38
10 5 -14 -9 -20 -32 59 -8
-6 -8 28 4 -38 6 7 0
48 38 58 64 -24 51 -57 6
-17 20 0 -8 -19 11 14 39
22 -19 -25 -8 -22 48 31 -46
-6 1 20 -18 31 26 52 -10
17 -8 2 -19 49 19 -13 -27
-1 -13 1 6 -46 4 -40 26
-33 -16 -1 -21 -27 -14 -36 -5
-11 10 9 -22 -3 28 30 -44
31 -9 11 -17 -44 -33 -32 7
53 -52 -50 -29 11 -65 2 59
8 44 -24 -11 12 0 -11 55
6 25 3 50 56 24 75 18
25 -45 15 -5 37 58 -29 40
4 -51 -39 11 12 -43 -37 9
31 21 7 48 -36 46 -26 14
-65 19 -30 -13 -36 -21 40 99
3 24 -16 -13 37 13 7 -81

gru_cell.bias_ih i1 [288]
00000000: 16ff da0c 0504 d8d1 0f15 eafb 1cea 47e4
00000010: bf2c 261c d537 0c1d 150e 1211 f0ed 0810
00000020: daf8 dbf5 c5ec 4725 ef1f 2c1c d71c 12c8
00000030: e7f8 2200 2f29 0eee 0002 31e5 e307 e639
00000040: 19f9 e70c 0cf9 ecf1 0fe1 ebed fd0f 01f1
00000050: 0ae8 d80a 240b cef2 d334 0016 170b 0c37
00000060: c6bc ccc3 d0b6 16cf c0ce cbfb dac5 d81b
00000070: dbfb d68f bcc3 5109 3ee0 cef3 cad6 0223
00000080: c0a5 bcc7 c7e0 8dcd d4cc e7b8 dcfc c492
00000090: a0b5 81c4 cab6 cab5 bcff 6df9 edd2 f1c9
000000a0: b9fc dea9 8d0f d9ed 25e0 b9cd f4e4 add8
000000b0: 35c4 c5b3 dfc5 d2c4 94bf bafb b0c1 81c6
000000c0: f215 070d 0cf7 f9f0 ec0a 07f2 1407 fa04
000000d0: ebd3 faf7 e620 f903 f504 f02a f416 d51b
000000e0: fce5 e6ed 1c1a 08ec 1227 0403 f507 f4f1
000000f0: 0716 061a e9d0 02d3 170a 0409 ef01 f4d9
22 -1 -38 12 5 4 -40 -47
15 21 -22 -5 28 -22 71 -28
-65 44 38 28 -43 55 12 29
21 14 18 17 -16 -19 8 16
-38 -8 -37 -11 -59 -20 71 37
-17 31 44 28 -41 28 18 -56
-25 -8 34 0 47 41 14 -18
0 2 49 -27 -29 7 -26 57
25 -7 -25 12 12 -7 -20 -15
15 -31 -21 -19 -3 15 1 -15
10 -24 -40 10 36 11 -50 -14
-45 52 0 22 23 11 12 55
-58 -68 -52 -61 -48 -74 22 -49
-64 -50 -53 -5 -38 -59 -40 27
-37 -5 -42 -113 -68 -61 81 9
62 -32 -50 -13 -54 -42 2 35
-64 -91 -68 -57 -57 -32 -115 -51
-44 -52 -25 -72 -36 -4 -60 -110
-96 -75 -127 -60 -54 -74 -54 -75
-68 -1 109 -7 -19 -46 -15 -55
-71 -4 -34 -87 -115 15 -39 -19
37 -32 -71 -51 -12 -28 -83 -40
53 -60 -59 -77 -33 -59 -46 -60
-108 -65 -70 -5 -80 -63 -127 -58
-14 21 7 13 12 -9 -7 -16
-20 10 7 -14 20 7 -6 4
-21 -45 -6 -9 -26 32 -7 3
-11 4 -16 42 -12 22 -43 27
-4 -27 -26 -19 28 26 8 -20
18 39 4 3 -11 7 -12 -15
7 22 6 26 -23 -48 2 -45
23 10 4 9 -17 1 -12 -39

gru_cell.bias_hh i1 [288]
00000000: 2613 fc1a 0bee ebf2 080e ef06 1fe7 13e8
00000010: e717 ef25 ed22 1d25 060e 1222 ec08 0ff2
00000020: ef0f 0705 dfef 2301 f0f6 2e1a ef26 eff6
00000030: f404 11ed 1d23 f30a 2c03 f819 f216 dc2d
00000040: 0919 dde9 ff03 ed01 fcff f115 21d5 2902
00000050: 07ec fceb ec13 f40c c804 30fa f1f9 fef9
00000060: d7f6 b0ed c0c4 0dd3 e0fd c516 e4a7 eaf8
00000070: f5ed d5a7 d7b9 38f4 290d f3e4 dab8 e5e8
00000080: dfe6 ecd8 df10 ccce bcc9 e9cb d2ef ba9c
00000090: a2c1 96dd d7cd aae2 e3e4 57fc 08e5 face
000000a0: c9e6 fbb4 a207 f8c1 0fe8 b7e5 ccf3 bdd6
000000b0: 1ab6 c1ae f7c7 f5d8 dedf d3ec d9ec b9b2
000000c0: 13ac 5ec8 1bc2 fcef e9cd 29de da44 1ff0
000000d0: 1eb9 12ca e409 1ec3 1310 f752 e121 c731
000000e0: 09cf f01d 6701 f4fe 77fc 10d5 16fd bf22
000000f0: e021 03b6 f8eb dcff dad3 1a2a e066 1c1a
38 19 -4 26 11 -18 -21 -14
8 14 -17 6 31 -25 19 -24
-25 23 -17 37 -19 34 29 37
6 14 18 34 -20 8 15 -14
-17 15 7 5 -33 -17 35 1
-16 -10 46 26 -17 38 -17 -10
-12 4 17 -19 29 35 -13 10
44 3 -8 25 -14 22 -36 45
9 25 -35 -23 -1 3 -19 1
-4 -1 -15 21 33 -43 41 2
7 -20 -4 -21 -20 19 -12 12
-56 4 48 -6 -15 -7 -2 -7
-41 -10 -80 -19 -64 -60 13 -45
-32 -3 -59 22 -28 -89 -22 -8
-11 -19 -43 -89 -41 -71 56 -12
41 13 -13 -28 -38 -72 -27 -24
-33 -26 -20 -40 -33 16 -52 -50
-68 -55 -23 -53 -46 -17 -70 -100
-94 -63 -106 -35 -41 -51 -86 -30
-29 -28 87 -4 8 -27 -6 -50
-55 -26 -5 -76 -94 7 -8 -63
15 -24 -73 -27 -52 -13 -67 -42
26 -74 -63 -82 -9 -57 -11 -40
-34 -33 -45 -20 -39 -20 -71 -78
19 -84 94 -56 27 -62 -4 -17
-23 -51 41 -34 -38 68 31 -16
30 -71 18 -54 -28 9 30 -61
19 16 -9 82 -31 33 -57 49
9 -49 -16 29 103 1 -12 -2
119 -4 16 -43 22 -3 -65 34
-32 33 3 -74 -8 -21 -36 -1
-38 -45 26 42 -32 102 28 26

priority_gate.weight i1 [1, 96]
00000000: 993d 41f0 4504 f68b 9c28 fbaa dc48 fce8
00000010: 3e40 a416 ab9b 65e0 ac31 f744 2f0b 8ffc
00000020: ae0c 7fb5 9149 36e2 2cd0 44c6 cb14 e86c
00000030: 130e ab48 fd85 0eed d016 056c 99f9 c4f1
00000040: 282e bee0 d3fa df32 f5d8 01b3 d245 bc27
00000050: e7f1 5af9 0e57 4cde 3a1e 8b03 296b 9b6a
-103 61 65 -16 69 4 -10 -117
-100 40 -5 -86 -36 72 -4 -24
62 64 -92 22 -85 -101 101 -32
-84 49 -9 68 47 11 -113 -4
-82 12 127 -75 -111 73 54 -30
44 -48 68 -58 -53 20 -24 108
19 14 -85 72 -3 -123 14 -19
-48 22 5 108 -103 -7 -60 -15
40 46 -66 -32 -45 -6 -33 50
-11 -40 1 -77 -46 69 -68 39
-25 -15 90 -7 14 87 76 -34
58 30 -117 3 41 107 -101 106

memory_writer.weight i1 [96, 96]
00000000: e8d0 22f5 e3ed f4df e505 ec12 0207 e1e3
00000010: adfa fc28 05fd 2628 f435 c802 3736 ff01
00000020: ce03 0944 f80d fc04 b714 b920 ebe8 cfca
00000030: 392f 0a1e e0e3 0c06 df20 faae eae5 fe1e
00000040: 0028 ec0e 12f9 a800 3036 0a15 fdc9 10e3
00000050: 040e 1033 0f38 341e fce3 bdf0 e019 1909
00000060: 1a0c fb16 24c2 bae0 1fe1 f9f3 1bfd 13f7
00000070: f901 3419 03fc e221 0828 23da cb14 d941
00000080: 36ee df0e d2ef 0109 0809 0aed 211a 21fa
00000090: 1cf8 25e9 1eff f91d 1cf6 fdb9 100d ef21
000000a0: 16fd 0640 c3f7 2000 da0d 11eb df06 04c7
000000b0: fb16 f011 0907 3cef 0c28 2e17 41eb 2820
000000c0: e9d8 1cd2 df00 ff2b f3ee e9d4 d7ed 0054
000000d0: c1fd e7f6 1bea 3bc8 e718 eec7 10df 15eb
000000e0: f1f3 ff03 2c03 131d c83e f832 b2f1 cc02
000000f0: 0511 f918 e903 e607 04f7 03e5 efda 0c18
-24 -48 34 -11 -29 -19 -12 -33
-27 5 -20 18 2 7 -31 -29
-83 -6 -4 40 5 -3 38 40
-12 53 -56 2 55 54 -1 1
-50 3 9 68 -8 13 -4 4
-73 20 -71 32 -21 -24 -49 -54
57 47 10 30 -32 -29 12 6
-33 32 -6 -82 -22 -27 -2 30
0 40 -20 14 18 -7 -88 0
48 54 10 21 -3 -55 16 -29
4 14 16 51 15 56 52 30
-4 -29 -67 -16 -32 25 25 9
26 12 -5 22 36 -62 -70 -32
31 -31 -7 -13 27 -3 19 -9
-7 1 52 25 3 -4 -30 33
8 40 35 -38 -53 20 -39 65
54 -18 -33 14 -46 -17 1 9
8 9 10 -19 33 26 33 -6
28 -8 37 -23 30 -1 -7 29
28 -10 -3 -71 16 13 -17 33
22 -3 6 64 -61 -9 32 0
-38 13 17 -21 -33 6 4 -57
-5 22 -16 17 9 7 60 -17
12 40 46 23 65 -21 40 32
-23 -40 28 -46 -33 0 -1 43
-13 -18 -23 -44 -41 -19 0 84
-63 -3 -25 -10 27 -22 59 -56
-25 24 -18 -57 16 -33 21 -21
-15 -13 -1 3 44 3 19 29
-56 62 -8 50 -78 -15 -52 2
5 17 -7 24 -23 3 -26 7
4 -9 3 -27 -17 -38 12 24

memory_writer.bias i1 [96]
00000000: e8f7 1cfd c6da e8fb e9c9 cef8 e6e1 ece6
00000010: 183a d7ed 35ba 4023 e9a0 f527 1fc4 caee
00000020: 16d7 072a 2341 d6f1 08c6 dfd6 e290 e5fe
00000030: a3d0 3c0e bc47 f422 3404 012e cc05 7fc9
00000040: 2410 f1c4 c8f7 128e 451e 4831 e1cd fdea
00000050: 1c5a 4308 f8e5 13a6 2df8 e111 d043 c903
-24 -9 28 -3 -58 -38 -24 -5
-23 -55 -50 -8 -26 -31 -20 -26
24 58 -41 -19 53 -70 64 35
-23 -96 -11 39 31 -60 -54 -18
22 -41 7 42 35 65 -42 -15
8 -58 -33 -42 -30 -112 -27 -2
-93 -48 60 14 -68 71 -12 34
52 4 1 46 -52 5 127 -55
36 16 -15 -60 -56 -9 18 -114
69 30 72 49 -31 -51 -3 -22
28 90 67 8 -8 -27 19 -90
45 -8 -31 17 -48 67 -55 3

ln_f.weight i1 [96]
00000000: 6972 7c6f 7072 666f 6d76 7267 7070 6f7a
00000010: 736d 6f72 7a79 7967 5c72 766c 7c73 6672
00000020: 6575 6a6a 7767 6e72 7d7d 6a6b 777d 6c6c
00000030: 726f 7679 7f69 7274 7579 746d 6674 7177
00000040: 7570 786e 796b 7960 5773 7d78 6f77 6e76
00000050: 7573 786d 6d73 756f 676f 7579 6974 7877
105 114 124 111 112 114 102 111
109 118 114 103 112 112 111 122
115 109 111 114 122 121 121 103
92 114 118 108 124 115 102 114
101 117 106 106 119 103 110 114
125 125 106 107 119 125 108 108
114 111 118 121 127 105 114 116
117 121 116 109 102 116 113 119
117 112 120 110 121 107 121 96
87 115 125 120 111 119 110 118
117 115 120 109 109 115 117 111
103 111 117 121 105 116 120 119

ln_f.bias i1 [96]
00000000: ce1e 51d5 2120 320b ca4a cfc6 cd4c c7c4
00000010: 483a edde edf3 7fab b537 ee11 ee21 d5a1
00000020: eb22 33b8 8436 f5b4 0634 429b d53a e03b
00000030: 2b39 c533 32a2 14f0 d63e 0402 d838 acce
00000040: 17f8 b7be b7d5 d134 c9c8 03c3 352f f62d
00000050: c6ec 3429 3438 20c1 2317 b22f 5ff2 d07e
-50 30 81 -43 33 32 50 11
-54 74 -49 -58 -51 76 -57 -60
72 58 -19 -34 -19 -13 127 -85
-75 55 -18 17 -18 33 -43 -95
-21 34 51 -72 -124 54 -11 -76
6 52 66 -101 -43 58 -32 59
43 57 -59 51 50 -94 20 -16
-42 62 4 2 -40 56 -84 -50
23 -8 -73 -66 -73 -43 -47 52
-55 -56 3 -61 53 47 -10 45
-58 -20 52 41 52 56 32 -63
35 23 -78 47 95 -14 -48 126

head.weight i1 [98, 96]
00000000: e4eb f8fc f120 ff10 feef 06f2 0402 09db
00000010: ef05 0d19 0612 19fd 0ffd 1006 15f9 f611
00000020: 1a16 f7f8 0b01 f416 e115 04f4 0501 fedc
00000030: 0802 0f03 f405 1903 060f 011a fcf6 0303
00000040: f1eb f21e 0a0d f505 0a06 f80e e60e 15f7
00000050: 2d0a 01ee 001d 12ec 12e2 f704 dff1 eaeb
00000060: f4de 1900 d1f4 0004 0105 eef2 e509 eefd
00000070: 0310 0f05 f121 0eef f9ff 0e09 f303 eaf8
00000080: 0b1b 0bfd f80f defc e916 0bea e607 fe08
00000090: 1a0e ee1f d9f3 15ed ee10 f0f2 f712 1af9
000000a0: e4f3 1118 02fd ef07 04e8 1afc 1217 0e0e
000000b0: 0a08 f20a 140d 12f7 12dd 0b0d 10ed e0f8
000000c0: fae4 0801 deed 14ec fdee f5ed f4ff 00f4
000000d0: 0909 11ff f026 c0fc e7fe 0a0d fd04 fc0c
000000e0: f404 0801 0800 f9f0 fb13 07fb f6ff fe13
000000f0: 09ff fb1e ee0d 0ff2 00fb 1a01 0204 2df3
-28 -21 -8 -4 -15 32 -1 16
-2 -17 6 -14 4 2 9 -37
-17 5 13 25 6 18 25 -3
15 -3 16 6 21 -7 -10 17
26 22 -9 -8 11 1 -12 22
-31 21 4 -12 5 1 -2 -36
8 2 15 3 -12 5 25 3
6 15 1 26 -4 -10 3 3
-15 -21 -14 30 10 13 -11 5
10 6 -8 14 -26 14 21 -9
45 10 1 -18 0 29 18 -20
18 -30 -9 4 -33 -15 -22 -21
-12 -34 25 0 -47 -12 0 4
1 5 -18 -14 -27 9 -18 -3
3 16 15 5 -15 33 14 -17
-7 -1 14 9 -13 3 -22 -8
11 27 11 -3 -8 15 -34 -4
-23 22 11 -22 -26 7 -2 8
26 14 -18 31 -39 -13 21 -19
-18 16 -16 -14 -9 18 26 -7
-28 -13 17 24 2 -3 -17 7
4 -24 26 -4 18 23 14 14
10 8 -14 10 20 13 18 -9
18 -35 11 13 16 -19 -32 -8
-6 -28 8 1 -34 -19 20 -20
-3 -18 -11 -19 -12 -1 0 -12
9 9 17 -1 -16 38 -64 -4
-25 -2 10 13 -3 4 -4 12
-12 4 8 1 8 0 -7 -16
-5 19 7 -5 -10 -1 -2 19
9 -1 -5 30 -18 13 15 -14
0 -5 26 1 2 4 45 -13

head.bias i1 [98]
00000000: f03a c6d5 f1cd e2d3 e6ea d4d4 f381 f8ec
00000010: ecd9 f5e9 e7fb dde4 dce9 bad2 f0e1 8505
00000020: e7de fc02 f8ec f1f9 ece0 ebeb 0a07 f8e3
00000030: 01fa fddf d8ea fde7 df09 f328 07ff 013d
00000040: f301 f5f4 15f4 1810 f2a5 1c2c 252e fa14
00000050: ddfa f6d8 e6df d5d4 dfef dcf1 e7e9 d5eb
00000060: eafc
-16 58 -58 -43 -15 -51 -30 -45
-26 -22 -44 -44 -13 -127 -8 -20
-20 -39 -11 -23 -25 -5 -35 -28
-36 -23 -70 -46 -16 -31 -123 5
-25 -34 -4 2 -8 -20 -15 -7
-20 -32 -21 -21 10 7 -8 -29
1 -6 -3 -33 -40 -22 -3 -25
-33 9 -13 40 7 -1 1 61
-13 1 -11 -12 21 -12 24 16
-14 -91 28 44 37 46 -6 20
-35 -6 -10 -40 -26 -33 -43 -44
-33 -17 -36 -15 -25 -23 -43 -21
-22 -4
